ndsvt_models/mnist_cnn_model.pt (torch, 903456 bytes, 8 tensors)

conv1.weight f4 [32, 1, 3, 3]
0	0xbc8b583e	-0.01700985
1	0xbdec8626	-0.11549024
2	0xbe619b24	-0.22031838
3	0xbce11410	-0.027475387
4	0xbe9e58ee	-0.30927223
5	0x3e1d2e1a	0.15349618
6	0xbe9a8b49	-0.3018439
7	0x3e0bfc73	0.1367052
8	0xbde677ec	-0.11253342
9	0x3d1900a0	0.03735411
10	0x3e64a9fb	0.22330467
11	0xbea2ab42	-0.31771284
12	0x3e31106a	0.17291418
13	0x3dcf648b	0.10126599
14	0xbf05c9c4	-0.52260995
15	0x3e81e2e3	0.25368413
16	0x3eda785f	0.4266996
17	0x3c2039c6	0.009779399
18	0xbe42ac10	-0.19010949
19	0xbe357221	-0.17719318
20	0x3ee84a80	0.4536934
21	0xbe715692	-0.2356818
22	0x3e74bccf	0.2390015
23	0xbe579252	-0.2105191
24	0x3de1cf80	0.110259056
25	0x3e3cccdd	0.18437524
26	0xbe5a40de	-0.21313807
27	0x3e89aa45	0.26887718
28	0x3ecc7d5b	0.3993939
29	0x3eeedacb	0.466513
30	0x3e66dde0	0.22545576
31	0xbe9d6426	-0.3074047
32	0x3d9266a9	0.07148487
33	0xbf08a688	-0.53379107
34	0xbe134131	-0.14380337
35	0xbedaf20c	-0.42762792
36	0xbeb86d7e	-0.36021036
37	0x3eafaeb0	0.34312963
38	0x3d9cb936	0.07652514
39	0xbed2724e	-0.41102833
40	0x3eb6168d	0.3556408
41	0x3edd376e	0.43206352
42	0xbe829159	-0.25501516
43	0x3a5bd7f3	0.0008386366
44	0xbea194be	-0.31558794
45	0x3d8db00f	0.06918346
46	0x3e153139	0.14569558
47	0xbe401e90	-0.18761659
48	0x3d13570a	0.03597168
49	0xbe801277	-0.25014088
50	0xbdb014cb	-0.08597716
51	0xbe320944	-0.17386347
52	0xbe1369c0	-0.14395809
53	0xbe36afaa	-0.17840448
54	0xbd7f94f1	-0.0623979
55	0xbd709fbc	-0.058746085
56	0x3edd9557	0.43278
57	0xbe30305e	-0.1720595
58	0xbe6e6fcf	-0.23284839
59	0x3d54b522	0.051930554
60	0x3d0ebb94	0.034846857
61	0xbdae4770	-0.08509719
62	0xbe7d2c9e	-0.24724051
63	0x3ede18cb	0.4337829
64	0x3e9c9fc8	0.30590653
65	0xbeb8a9e3	-0.36067113
66	0x3ee3cc17	0.44491646
67	0xbecd243c	-0.40066707
68	0xbebe3e2c	-0.37156808
69	0x3d68d7b9	0.056846354
70	0xbdd23451	-0.10263885
71	0x3deca097	0.115540676
72	0x3d71f6e4	0.059073344
73	0xbd432d9c	-0.04765092
74	0xbdd007b3	-0.101577185
75	0x3df2cd51	0.11855567
76	0xbdf788a6	-0.120866105
77	0xbc36d1c2	-0.011158409
78	0xbcf5f606	-0.03002454
79	0xbcb83888	-0.022487894
80	0xbc122b19	-0.008921408
81	0x3ed8189c	0.42206275
82	0xbd3f94f6	-0.04677292
83	0x3e28c2d3	0.1648057
84	0x3d39f4d2	0.045399494
85	0x3e66b2c2	0.22529128
86	0xbe6fc702	-0.23415759
87	0xbe302172	-0.17200258
88	0xbedb6826	-0.42852896
89	0xbe89d20a	-0.2691806
90	0x3efc46f3	0.4927288
91	0x3eb067b7	0.34454128
92	0x3dc45285	0.09586052
93	0x3dbc84e2	0.09205033
94	0xbdd55593	-0.104167126
95	0xbe4788dd	-0.19485803
96	0xbdcb5f0a	-0.09930237
97	0xbe9cf740	-0.30657387
98	0xbeb88d51	-0.36045316
99	0xbdb86a25	-0.090046205
100	0x3d42dec1	0.047575716
101	0xbe139a5e	-0.14414355
102	0x3e991394	0.2989775
103	0xbb8d5554	-0.0043131504
104	0xbe18542e	-0.14875862
105	0xbe39f52e	-0.18159935
106	0xbdcde51d	-0.100534655
107	0xbdb6d633	-0.08927574
108	0xbe575137	-0.21027075
109	0xbe9c1492	-0.30484444
110	0x3d5087d5	0.05091079
111	0xbedfc3dc	-0.43704116
112	0x3e304f11	0.17217661
113	0x3e252d53	0.16130571
114	0x3de2c261	0.11072231
115	0x3d1ff5ef	0.0390529
116	0x3ece9ff3	0.40356407
117	0xbe8713b8	-0.26382232
118	0x3eefce06	0.4683687
119	0x3e8a785e	0.27044958
120	0x3ea2b91a	0.31781846
121	0x3e9d7918	0.3075645
122	0xbe90d6ec	-0.28288972
123	0x3e7ba0e3	0.24573092
124	0x3db5b23a	0.08871885
125	0xbab3c1d6	-0.0013714384
126	0x3e05398c	0.13010234
127	0xbe5b1630	-0.21395183
128	0xbe2cc933	-0.16873626
129	0xbe6fe309	-0.23426451
130	0x3d136d59	0.035992954
131	0xbe2baea5	-0.1676584
132	0xbd9cff55	-0.07665888
133	0xbdc5b4eb	-0.09653648
134	0xbe067f51	-0.13134505
135	0xbdde6c4b	-0.10860499
136	0x3d0cde43	0.034391653
137	0xbe6ed53a	-0.23323527
138	0xbe8a3de3	-0.2700034
139	0xbd60bf05	-0.05486967
140	0xbede54ce	-0.43424076
141	0x3efed39d	0.49770823
142	0xbd06e4f9	-0.03293321
143	0x3f01e51f	0.50740236
144	0x3dc6da38	0.09709591
145	0x3e694037	0.22778402
146	0xbe5d627b	-0.21619599
147	0xbd8f90d9	-0.070100494
148	0x3ea90af0	0.33016157
149	0x3c541cba	0.012946302
150	0xbe8926bf	-0.26787373
151	0xbe819de5	-0.25315776
152	0x3e9508b6	0.29108208
153	0xbd4ebda7	-0.050473835
154	0x3ebc5464	0.36783135
155	0x3f113ebb	0.56736344
156	0xbeca24e6	-0.39481276
157	0xbebeff6e	-0.37304252
158	0xbdd3010d	-0.10302935
159	0x3cbd15d6	0.023081701
160	0xbea7b52e	-0.32755417
161	0xbe684778	-0.22683513
162	0xbe40a289	-0.18812002
163	0x3e90fbfe	0.28317255
164	0x3ce5b1fc	0.028038971
165	0x3ecf13f6	0.40444916
166	0x3e14b64f	0.1452267
167	0xbebf8b6b	-0.37411055
168	0xbdac1d97	-0.08404081
169	0xbebf21c8	-0.3733046
170	0x3eb9aef3	0.36266288
171	0xbe2f21f6	-0.17102799
172	0xbeddb04d	-0.4329857
173	0x3e7fbe5f	0.24974965
174	0x3e2b4562	0.16725686
175	0x3e29bd3d	0.16576095
176	0x3ea38f1d	0.31945124
177	0x3e997a66	0.29976195
178	0x3e1cb170	0.15302062
179	0xbe28872d	-0.16457815
180	0xbdd386b4	-0.10328427
181	0xbe6edd70	-0.23326659
182	0x3e047506	0.12935266
183	0x3e2b70e7	0.16742288
184	0xbe068290	-0.13135743
185	0xbe646b96	-0.22306666
186	0xbd661279	-0.05616996
187	0x3de9dc84	0.11419013
188	0x3dc9de18	0.09856814
189	0xbec4fc15	-0.38473573
190	0x3e9b3629	0.30314758
191	0x3e63f780	0.22262383
192	0x3ea7e527	0.32792017
193	0x3de76280	0.11298084
194	0xbe9f1613	-0.3107153
195	0x3e8ff0d0	0.28113413
196	0xbee68ff3	-0.450317
197	0x3d0f3de4	0.034971133
198	0xbdc260bc	-0.09491107
199	0xbe9903bf	-0.2988567
200	0xbd175964	-0.036950484
201	0xbc0c195f	-0.008550971
202	0x3e3e2849	0.18570055
203	0xbe901703	-0.28142557
204	0x3df5d94d	0.120043375
205	0xbdecca75	-0.11562053
206	0x3e98e4f5	0.2986218
207	0x3e9cd3f1	0.30630448
208	0xbedb3bd7	-0.42819092
209	0xbecfa751	-0.4055734
210	0x3ec65443	0.38736162
211	0x3ca33afb	0.019925585
212	0xbf02fad8	-0.5116401
213	0x3ee925ed	0.45536748
214	0x3f0c143e	0.5471839
215	0xbe657957	-0.22409569
216	0xbe97320f	-0.2953038
217	0xbe8965ab	-0.2683538
218	0xbed418f9	-0.41425303
219	0xbb362fc3	-0.0027799464
220	0x3e52f6ae	0.20601913
221	0x3e8d73cd	0.2762741
222	0x3e8683b7	0.26272365
223	0x3e900438	0.2812822
224	0x3e7823df	0.24232434
225	0x3e88d9f9	0.267288
226	0xbe575425	-0.21028192
227	0xbe9c9d2c	-0.30588663
228	0x3ebaba0c	0.36470068
229	0x3e6ac8f4	0.2292822
230	0x3d4ef3af	0.050525364
231	0xbe90ef6f	-0.28307673
232	0x3e5dd6d6	0.21663985
233	0x3d9f8a43	0.07790043
234	0xbf00d1a3	-0.5031988
235	0xbed13911	-0.4086385
236	0x3e830c61	0.25595382
237	0x3dbebceb	0.09313377
238	0x3eddc656	0.4331538
239	0x3e42377a	0.18966475
240	0x3e167911	0.1469462
241	0xbe035ba3	-0.12827925
242	0x3ddff3a7	0.10935145
243	0x3ddc7a1c	0.10765478
244	0xbe876e46	-0.2645132
245	0xbef08fbf	-0.4698467
246	0x3ec77800	0.3895874
247	0x3e647f63	0.22314219
248	0xbef0cbd1	-0.470305
249	0x3e3444ac	0.17604321
250	0x3e97f952	0.29682404
251	0x3eb556b5	0.35417715
252	0xbe9aff66	-0.3027298
253	0x3ec47edf	0.38378045
254	0x3e91a913	0.28449306
255	0xbecc3eaf	-0.39891574

conv1.bias f4 [32]
0	0xbe8ef282	-0.27919394
1	0x3e1ce20b	0.15320604
2	0xbdcfab5d	-0.10140107
3	0xbb3433c3	-0.0027496673
4	0xbdc1e390	-0.09467232
5	0xbdeffbf8	-0.11717981
6	0xbe585cde	-0.21129176
7	0x3e068217	0.13135563
8	0x3de2122f	0.110386245
9	0xbe77f3db	-0.24214117
10	0xbd5b2933	-0.053506088
11	0x3e30b79b	0.1725754
12	0xbc2a2b20	-0.010386258
13	0x3c31b8c4	0.010847274
14	0xbea1da88	-0.3161204
15	0xbe26ea31	-0.16300274
16	0xbd0952fb	-0.033526402
17	0xbe9c273a	-0.30498677
18	0x3de68558	0.11255902
19	0x3e021748	0.12704194
20	0xbd429fc0	-0.04751563
21	0x3db243fa	0.08704372
22	0xbda3cc48	-0.07997948
23	0xbe0f1bc2	-0.13975433
24	0x3e664c35	0.22490008
25	0x3e4230dd	0.18963952
26	0x3c81e983	0.015858417
27	0xbdda27c9	-0.1065212
28	0x3d9afaf4	0.07567397
29	0xbda02f23	-0.078214906
30	0x3e805dd6	0.2507159
31	0xbe649f00	-0.22326279

conv2.weight f4 [64, 32, 3, 3]
0	0x3b61bb63	0.0034443967
1	0xbd90cfaa	-0.07070859
2	0xbce72bcc	-0.028219126
3	0x3d053145	0.03251769
4	0xbd632de6	-0.055463694
5	0xbca90c44	-0.020635732
6	0x3c9cf4f4	0.019159772
7	0xbcde0be0	-0.027105272
8	0x3d99acf9	0.07503695
9	0xbde1db7c	-0.110281914
10	0x3d208414	0.03918846
11	0x3dc4a220	0.096012354
12	0xbe359572	-0.1773279
13	0x3d8e4229	0.06946213
14	0x3d45be29	0.048277054
15	0xbd5a01d5	-0.053224403
16	0x3d9a32b1	0.075292
17	0x3db8ac0e	0.09017192
18	0x3cb75bc6	0.022382628
19	0xbdf01a5f	-0.1172378
20	0xbda866df	-0.08222746
21	0xbc757faf	-0.014984055
22	0xbc9d06d5	-0.019168297
23	0x3d1758e7	0.03695002
24	0xbc4f17c4	-0.0126399435
25	0xbd5a1729	-0.053244743
26	0xbd69b665	-0.05705871
27	0xbe134683	-0.14382367
28	0xbe52dcf8	-0.20592105
29	0xbd32c923	-0.04364885
30	0xbdefe74e	-0.1171404
31	0xbe4412ed	-0.19147845
32	0xbe14ecec	-0.14543504
33	0xbe434d72	-0.19072512
34	0xbe0ccaf3	-0.13749294
35	0xbe0ae1f5	-0.13562758
36	0x3d253821	0.04033673
37	0xbda78016	-0.08178727
38	0xbe64441a	-0.22291604
39	0x3db479b7	0.08812278
40	0x3ccddc16	0.02512936
41	0xbea5d26a	-0.32387096
42	0x3da18a71	0.07887734
43	0x3d54d1ad	0.051957775
44	0xbe66ea1d	-0.22550245
45	0x3c00afc5	0.007854407
46	0xbd005add	-0.031336654
47	0xbca72d39	-0.020407306
48	0x3c66e60f	0.014092936
49	0xbd4460e6	-0.047943972
50	0x3c2b1711	0.010442511
51	0xbc712f12	-0.014720695
52	0xbd7a4824	-0.061103955
53	0x3d4d0e03	0.05006219
54	0xbb833f3e	-0.004005342
55	0x3c2659a4	0.010153208
56	0x3d0c0585	0.03418495
57	0xbca49bf3	-0.020093894
58	0xbe10844b	-0.14112966
59	0x3bf46f5b	0.0074595637
60	0x3b92ce26	0.004480141
61	0xbdd41631	-0.10355795
62	0x3c5746e5	0.013139461
63	0xbe5c286b	-0.21499793
64	0xbdef8efb	-0.11697193
65	0xbb035c05	-0.0020043862
66	0xbe7cd185	-0.246893
67	0x3d909904	0.070604354
68	0x3d54c4fc	0.05194567
69	0xbe5f9221	-0.21833088
70	0x3dcb37bd	0.099227406
71	0x3e091803	0.13388066
72	0xbda65f27	-0.081236176
73	0xbd9337c4	-0.07188371
74	0x3a74fc0c	0.0009345419
75	0xbd238edb	-0.03993116
76	0xbd8aae50	-0.06771529
77	0x3d2237a2	0.039603837
78	0xbc6ceb6b	-0.014460425
79	0xbd365da8	-0.04452291
80	0x3da4f80c	0.08055124
81	0xbdb4ffc3	-0.08837845
82	0xbd8f2377	-0.06989186
83	0x3d154125	0.03643908
84	0xbdc3cd0a	-0.095605925
85	0xbd102680	-0.035192966
86	0xbc2ba0b3	-0.010475325
87	0xbe36c7ba	-0.17849627
88	0xbbae25af	-0.005314551
89	0x3dad383c	0.084579915
90	0xbe6c4892	-0.23074558
91	0xbcd27657	-0.025691194
92	0x3cabc0f8	0.020966038
93	0xbe77d00e	-0.2420046
94	0xbc1e483a	-0.009660775
95	0x3d40a6d7	0.04703411
96	0xbe60c85b	-0.2195143
97	0x3aacfc09	0.0013197671
98	0x3da1d073	0.07901087
99	0x3d25c706	0.040473007
100	0xbdd061ae	-0.10174881
101	0x3cfcbc44	0.03085149
102	0x3c86a75f	0.01643723
103	0xbc7d86c0	-0.015474021
104	0x3d1c987f	0.03823137
105	0xbd913285	-0.07089714
106	0x3cfb9d1b	0.030714562
107	0x3d6e67d7	0.0582045
108	0x3c6470f6	0.013942948
109	0xbda31489	-0.07962901
110	0xbe485cd6	-0.19566664
111	0x3da91854	0.08256593
112	0x3d2b92c0	0.041888
113	0xbe8cfbea	-0.27535945
114	0x3e1f8904	0.15579611
115	0xbd001679	-0.03127143
116	0xbdc32201	-0.0952797
117	0x3cbf5747	0.023357047
118	0x3d55091e	0.052010648
119	0xbd927c2b	-0.071525894
120	0x3db4a9e9	0.0882147
121	0x3da6c1b4	0.08142415
122	0xbc9bddf8	-0.019026741
123	0x3da64dc1	0.08120299
124	0x3e289a26	0.16465053
125	0x3d633dfc	0.055479035
126	0x3d45a3a5	0.048251767
127	0x3d6f56c0	0.05843234
128	0x3c563bdf	0.013075798
129	0x3ca4e192	0.020127092
130	0xbd8c19f5	-0.068408884
131	0x3ce76527	0.028246475
132	0x3cdf0949	0.027226107
133	0xbc4a88c9	-0.012361714
134	0x3d77a4c6	0.060459875
135	0xbc32519d	-0.010883716
136	0xbbe2cc9f	-0.0069213654
137	0xbd564ce7	-0.052319434
138	0xbe03ab1d	-0.12858243
139	0xbd9de1a8	-0.07709056
140	0xbd8bd591	-0.06827844
141	0xbe1d1e0a	-0.1534349
142	0xbe8689a5	-0.2627689
143	0xbe140bc8	-0.14457619
144	0x3d45c0d9	0.048279617
145	0xbdf7a75d	-0.12092469
146	0xbbe89077	-0.0070972997
147	0x3c35c73c	0.011094864
148	0x3ba7539b	0.005106402
149	0xbc8ad66a	-0.016947944
150	0xbd22d868	-0.039757162
151	0xbe3b76b9	-0.18307008
152	0xbd667e9c	-0.056273088
153	0x3d3530b7	0.04423591
154	0xbd96e8f0	-0.07368648
155	0x3d98168b	0.07426175
156	0x3b82a00c	0.003986364
157	0xbdd92f6d	-0.10604749
158	0xbd6033d0	-0.054736912
159	0xbdae9db0	-0.0852617
160	0xbe153994	-0.14572746
161	0xbdf4a929	-0.11946327
162	0x3c99fd6e	0.018797603
163	0xbdbad1e1	-0.091220625
164	0xbca7a371	-0.020463677
165	0xbd8ed400	-0.069740295
166	0xbce22d48	-0.027609482
167	0x3d2fbc39	0.042904112
168	0xbc524e08	-0.012835987
169	0xbcd11acf	-0.025525479
170	0x3cda23d6	0.026628416
171	0xbca9c58a	-0.020724077
172	0xbd04c2d5	-0.03241237
173	0xbd47a6df	-0.048743125
174	0x3d186af3	0.03721137
175	0x3cb8f3fe	0.022577282
176	0xbd7de83b	-0.06198905
177	0x3d5b8e16	0.0536023
178	0x3d94db89	0.072684355
179	0xbe160e09	-0.14653791
180	0xbd2596b7	-0.040426936
181	0xbd5e8cf0	-0.054333627
182	0x3d61febf	0.055174585
183	0xbd10096d	-0.03516524
184	0xbd86697b	-0.065630876
185	0x3ceaa87a	0.028644789
186	0x3d1804d5	0.037113983
187	0xbc459e5a	-0.01206168
188	0x3c8e4700	0.01736784
189	0xbd4ce692	-0.050024576
190	0xbdf6259d	-0.12018893
191	0xbd7f13ab	-0.062274616
192	0xbe03e229	-0.12879242
193	0xbc946d6b	-0.01811858
194	0xbc9c6b97	-0.019094272
195	0xbd185c17	-0.0371972
196	0xbaed41ce	-0.0018101276
197	0x3d15854d	0.03650408
198	0x3d0873b1	0.033313457
199	0xbd514e94	-0.05110033
200	0xbcb9d824	-0.022686072
201	0x3d8303d3	0.06397214
202	0x3d20cd9a	0.039258577
203	0x3c5ce421	0.013482125
204	0xbbbb9b32	-0.005725288
205	0xbe1e0051	-0.15429808
206	0x3af88104	0.0018959348
207	0xbe4ffdba	-0.20311633
208	0x3e1cb3a1	0.15302898
209	0x3dc611eb	0.09671386
210	0xbea97e7f	-0.3310432
211	0x3e044114	0.1291545
212	0x3e1bb04e	0.15203974
213	0xbe3fa47c	-0.1871509
214	0x3d711bb1	0.0588643
215	0x3dded283	0.10879996
216	0x3c1c0e06	0.009524828
217	0xbc78ffc9	-0.015197703
218	0xbe0c9d90	-0.1373198
219	0xbd02e3a3	-0.031955373
220	0x3c87546b	0.016519746
221	0xbdd6eccf	-0.104943864
222	0xbcae166b	-0.021250924
223	0xbcde4035	-0.027130226
224	0xbd6e6055	-0.058197338
225	0xbdcab5a0	-0.098979235
226	0x3d9dc4e0	0.077035666
227	0x3c642a9c	0.0139261745
228	0xbca8932b	-0.020577988
229	0xbb2fd8bc	-0.0026832065
230	0x3c893d02	0.016752724
231	0xbd21acf9	-0.0394716
232	0x3d2082db	0.039187293
233	0xbd5aeaec	-0.053446695
234	0x3dc38cd1	0.09548343
235	0xbda86453	-0.0822226
236	0xbe5b157d	-0.21394916
237	0x3d2efcb9	0.042721484
238	0x3d0cd2c4	0.03438069
239	0xbe0daf4c	-0.13836402
240	0x3de8f126	0.113741204
241	0x3b1f2af1	0.002428707
242	0xbe4988e5	-0.19681127
243	0xbe0d45b1	-0.13796116
244	0x3d01f95c	0.03173195
245	0xbba519f9	-0.0050384966
246	0xbe98d0a3	-0.29846677
247	0xbd1cc64f	-0.03827506
248	0x3e163cf9	0.14671697
249	0xbeba62c4	-0.36403477
250	0xbdb80184	-0.08984664
251	0xbcb9f2c6	-0.022698771
252	0x3da334dd	0.07969067
253	0x3d654a1c	0.05597888
254	0xbd95869a	-0.07301064
255	0x3dc242af	0.09485375

conv2.bias f4 [64]
0	0xbc31f506	-0.010861641
1	0xbd9abc8f	-0.07555496
2	0xbd7b64a2	-0.061375268
3	0x3c042f85	0.00806797
4	0xbb081509	-0.002076449
5	0xbdc816d0	-0.09769976
6	0xbd7e547d	-0.062092293
7	0x3be86694	0.0070923064
8	0x3ce7193f	0.02821028
9	0x3c95992a	0.01826151
10	0x3c7063ce	0.014672233
11	0xbd8b9de9	-0.06817228
12	0xbd412b84	-0.04716064
13	0x3d2a306b	0.04155008
14	0x3ce87aaf	0.028378813
15	0x3d181fe0	0.037139773
16	0xbd98cdc1	-0.074611194
17	0x3c70b76d	0.01469217
18	0x3d3b4d25	0.045727868
19	0x3d051968	0.032494932
20	0xbc94779f	-0.018123446
21	0xbd93d2f1	-0.07217968
22	0x3b29252a	0.0025809505
23	0x3c604eee	0.013690693
24	0xbc986463	-0.018602556
25	0x3bee2d13	0.007268557
26	0xbd12234d	-0.035678197
27	0xbc551396	-0.013005158
28	0xba390bdf	-0.0007058959
29	0xbd8591c0	-0.0652194
30	0xbd1014aa	-0.035175957
31	0xbd31b176	-0.04338213
32	0xbda44259	-0.08020467
33	0xbcfa5df3	-0.030562377
34	0x3d341e04	0.043973938
35	0x3c98a16d	0.018631661
36	0xbcb36057	-0.021896524
37	0x3cf99e5e	0.030471023
38	0xbc5e032d	-0.013550562
39	0xbd13914f	-0.03602725
40	0x3cbc1756	0.022960346
41	0xbc187356	-0.009304842
42	0x3c9df952	0.019283924
43	0xbd3da0f4	-0.046296075
44	0xbc722f57	-0.0147817945
45	0xbb913b2e	-0.0044321036
46	0xbb165890	-0.002294097
47	0x3bac1795	0.0052518346
48	0x3cbdfac4	0.023190863
49	0xbd6d6fb9	-0.057967875
50	0xbcedea65	-0.029042432
51	0xbdb0c7e4	-0.08631876
52	0xbd89b9f2	-0.067249194
53	0x3c7a1a06	0.0152649935
54	0xbd8be1cd	-0.068301775
55	0xbd5837a8	-0.052787453
56	0x3ce89199	0.028389739
57	0xbdab56eb	-0.08366188
58	0xbce45bd4	-0.027875818
59	0xbd5403ff	-0.051761623
60	0xbb5e7b93	-0.0033948168
61	0xbcdd7edf	-0.027038036
62	0xbd6efe71	-0.058348123
63	0x3d7555ab	0.059896152

fc1.weight f4 [128, 1600]
0	0x3c82da43	0.015973216
1	0x3d3e69de	0.04648768
2	0x3d7cd296	0.061724268
3	0x3d217306	0.039416336
4	0x3dc36dc7	0.09542423
5	0x3dcd5d50	0.100275636
6	0x3cb5ee4a	0.022208352
7	0x3be6bfb8	0.0070418976
8	0x3c221518	0.009892724
9	0x3c7a14c2	0.015263738
10	0x3def96c9	0.11698682
11	0x3daecf46	0.08535628
12	0xbd488f37	-0.048964705
13	0x3daa63ed	0.083198406
14	0x3d3cde59	0.046110485
15	0x3d84d7c2	0.06486465
16	0x3abbfcc2	0.0014342295
17	0xbd449aaf	-0.04799908
18	0x3ccac98f	0.024754314
19	0x3dae2f6b	0.08505138
20	0xbd256bab	-0.040385883
21	0xbd930764	-0.07179144
22	0x3dbd67c7	0.092483096
23	0x3e05528c	0.1301977
24	0x3d533b22	0.051570065
25	0x3d034152	0.032044716
26	0x3c933735	0.01797066
27	0xbcedd4ab	-0.029032072
28	0xbcf8cda6	-0.030371498
29	0x3d975827	0.073898606
30	0x3cae1145	0.02124847
31	0xbc948788	-0.018131033
32	0x3aedcf8f	0.0018143522
33	0xbe0266df	-0.12734555
34	0xbdfbc0a8	-0.12292606
35	0x3d437c5b	0.047726016
36	0x3d6929b2	0.05692453
37	0x3d0e12c7	0.034685876
38	0xbca4be7a	-0.020110358
39	0x3d29fea3	0.041502606
40	0x3d0214cb	0.03175811
41	0x3ce68dc9	0.02814378
42	0xbd988055	-0.074463524
43	0x3cef3d3f	0.02920401
44	0x3d47f356	0.048816048
45	0x3d62574e	0.05525904
46	0xbc8cc31d	-0.017182881
47	0xbe2a1a70	-0.16611648
48	0xbd9bd258	-0.07608479
49	0xbc8ea8f8	-0.017414555
50	0x3de61d5e	0.1123607
51	0xbc3eead5	-0.011652668
52	0x3ce39e0c	0.027785324
53	0xbd0f332e	-0.034960918
54	0xbc3b5964	-0.011434887
55	0x3d2e9897	0.04262599
56	0xb9222712	-0.00015464079
57	0x3d510e87	0.051039245
58	0x3d5aa71c	0.053382024
59	0xbb732213	-0.0037099167
60	0x3e12cd54	0.14336139
61	0x3db6de12	0.08929075
62	0x3bcf3fe8	0.006324757
63	0xbd335c67	-0.043789294
64	0xbe0b2e17	-0.135918
65	0x3dfb5ec8	0.122739375
66	0xbc9c3380	-0.019067526
67	0xbd760d60	-0.06007135
68	0xbda9cc3a	-0.08290906
69	0x3d505452	0.050861664
70	0xbc382ee9	-0.011241653
71	0xbda0ffaf	-0.07861268
72	0xbdc3f2f9	-0.09567828
73	0xbcc425d9	-0.023943828
74	0xbd2f7b76	-0.04284235
75	0x3b49dac8	0.003080057
76	0xbd70d1fe	-0.058794014
77	0xbc0dde18	-0.008658908
78	0xbd071446	-0.03297832
79	0xbcf49215	-0.029854814
80	0x3c430340	0.01190263
81	0xbc392b63	-0.011301848
82	0x3cd586c9	0.026065247
83	0x3d398288	0.0452905
84	0x3b7db2ab	0.003871123
85	0x3dc02c2f	0.09383427
86	0x3a8050cf	0.0009789708
87	0xbb95cc61	-0.004571483
88	0x3dae2521	0.085031755
89	0x3cec5f9a	0.02885418
90	0x3c1869bf	0.009302556
91	0x3cdc5b0a	0.02689888
92	0x3c27371e	0.010206012
93	0x3d3bc453	0.045841526
94	0x3c8b3ef8	0.0169978
95	0xbc93f1b7	-0.018059595
96	0xbdafaf83	-0.08578398
97	0x3d1f78b0	0.038933456
98	0xbc410fee	-0.011783583
99	0x3d5abf0a	0.053404845
100	0xbd42befe	-0.047545426
101	0xbd17d022	-0.037063725
102	0xbb1c4f94	-0.0023851143
103	0x3bc67bc2	0.0060572335
104	0x3dbe4038	0.092895925
105	0xbce4f066	-0.027946662
106	0x3d635d1b	0.055508714
107	0x3ada8583	0.001667187
108	0x3d292743	0.04129721
109	0x3d8ce768	0.06880075
110	0x3bfa5748	0.0076397993
111	0xbd4ded08	-0.05027488
112	0xbd1adc2f	-0.03780764
113	0x3c5ececa	0.013599107
114	0x3c01f774	0.007932533
115	0xbc206772	-0.009790288
116	0xbc7e0a8f	-0.015505447
117	0x3c9ae81c	0.018909506
118	0x3bd3a938	0.0064593814
119	0x3d04ec94	0.03245218
120	0x3c837249	0.016045706
121	0x3dfebb23	0.12438037
122	0x3ddf77b6	0.10911505
123	0x3df84a6c	0.1212357
124	0xbcab97a2	-0.020946328
125	0x3cfc640b	0.030809423
126	0x3cb7279d	0.022357756
127	0xbd517d32	-0.051144786
128	0xbcf3f79b	-0.029781153
129	0xbd33668b	-0.043798964
130	0x3d9c0846	0.076187655
131	0x3cd1b4f8	0.025598988
132	0x3b4019f0	0.0029312335
133	0xbd07017a	-0.032960393
134	0xbc2d6550	-0.010583237
135	0x3d03e272	0.032198377
136	0xbc8abc37	-0.016935451
137	0x3cb19437	0.02167712
138	0x3d888d17	0.06667536
139	0xbba36914	-0.0049868915
140	0x3c5d4825	0.01350597
141	0x3c7c3538	0.015393548
142	0x3ca20310	0.019776851
143	0x3d44ac81	0.048016075
144	0xbde41d11	-0.111383565
145	0xbdba40b9	-0.09094376
146	0xbe146130	-0.14490199
147	0xbdcb209d	-0.0991833
148	0xbcab542f	-0.020914165
149	0xbd3b491b	-0.045724016
150	0xbc6cb207	-0.014446742
151	0x3c7381c7	0.014862484
152	0xbbd29473	-0.006426388
153	0x3c4964e5	0.012292122
154	0xbc573126	-0.0131342765
155	0xbcb12c12	-0.02162746
156	0x3b8080e2	0.003921614
157	0x3c995b67	0.018720342
158	0xbc660e00	-0.014041424
159	0x3cb9b6b3	0.022670126
160	0x3cad1eb2	0.0211328
161	0xbca880e9	-0.020569282
162	0xbbbbff32	-0.0057372088
163	0x3c1f0f25	0.009708201
164	0xbc5c8be5	-0.013461088
165	0x3c7450e7	0.014911867
166	0xbca06a76	-0.019582015
167	0xbcc681ef	-0.024231879
168	0xbb9e0c8e	-0.004823274
169	0xbceb5984	-0.028729208
170	0xbc50ce5d	-0.012744513
171	0x3be15ec0	0.00687775
172	0x3b03921a	0.0020076097
173	0x3bf10888	0.0073557533
174	0xbc283f27	-0.010268963
175	0x3c063e67	0.008193589
176	0xbc65962c	-0.014012855
177	0x3cde5d65	0.027144143
178	0x3b8f709b	0.0043774373
179	0x3d86f368	0.06589395
180	0x3dce7815	0.100814976
181	0x3db6ebe9	0.08931715
182	0x3d7cf0d5	0.061753113
183	0x3d3eaed3	0.046553444
184	0xbd029e71	-0.031889383
185	0x3db37414	0.087623745
186	0x3dab8dee	0.0837668
187	0x3d46c850	0.048530877
188	0x3cf1ae0b	0.029501935
189	0x3d18dd4f	0.03732043
190	0x3ac73036	0.0015196863
191	0x3ca78123	0.02044732
192	0x3b19c34e	0.0023462358
193	0xbc222f84	-0.009899024
194	0xbc75a48f	-0.014992847
195	0xbdaa9762	-0.08329655
196	0xbe2e33f2	-0.17012003
197	0xbdae5160	-0.08511615
198	0xbdc82f31	-0.09774626
199	0xbce72928	-0.028217867
200	0xbbef1379	-0.0072960225
201	0xbd624580	-0.05524206
202	0xbd2f784b	-0.04283933
203	0xbc47f20b	-0.012203704
204	0xbd1ef43d	-0.038807143
205	0x3cd9788f	0.026546745
206	0x3c35816a	0.011078218
207	0x3ad68bc7	0.0016368561
208	0xbb131801	-0.0022444727
209	0x3cfdd0b7	0.030983312
210	0x3d829b35	0.0637726
211	0x3d388c91	0.04505593
212	0xbcca1c77	-0.024671776
213	0xbd26a20e	-0.04068189
214	0x3d07e04f	0.0331729
215	0x3c318b95	0.010836502
216	0x3cbe18eb	0.023205241
217	0x3aa33fb0	0.0012454893
218	0x3da911a7	0.0825532
219	0x3d02d603	0.03194238
220	0xbd1aa8ac	-0.037758514
221	0x3de764cd	0.11298523
222	0x3d6fefa7	0.05857816
223	0x3d301a11	0.04299361
224	0xbcf70d9c	-0.030157857
225	0x3d5eb7cc	0.0543745
226	0x3dcbf790	0.09959328
227	0x3c792ec0	0.0152089
228	0x3c8201ac	0.015869938
229	0xbc224f37	-0.009906582
230	0x3cd714aa	0.02625497
231	0x3a3391fc	0.00068500615
232	0x3d397d71	0.045285646
233	0x3d384368	0.04498616
234	0x3c2d34ca	0.010571668
235	0x3dd3a673	0.10334482
236	0x3e3c7a85	0.18406112
237	0x3e13b5a3	0.14424758
238	0xbc75c438	-0.0150003955
239	0xbd808cba	-0.062768415
240	0x3d8adfd0	0.0678097
241	0x3d17e6d3	0.037085366
242	0x3ce43ca4	0.027860947
243	0x3c014e85	0.007892256
244	0x3d942bf4	0.07234946
245	0xbc9f563f	-0.019450305
246	0xbce5ffbd	-0.028076047
247	0xbcbbadb8	-0.022909984
248	0xbcb21b94	-0.021741666
249	0x39491b8f	0.0001917912
250	0xbd31440e	-0.043277793
251	0xbc9c8922	-0.019108359
252	0xbd012fd6	-0.03153976
253	0xbd15b3d1	-0.03654844
254	0xbd5d379e	-0.05400812
255	0x3dd2e55d	0.10297654

fc1.bias f4 [128]
0	0x3d2246c7	0.03961828
1	0x3d1cb81f	0.03826153
2	0x3d443bfd	0.04790877
3	0xbbc524e3	-0.00601636
4	0xbce3b2e1	-0.027795257
5	0xbc81847b	-0.015810242
6	0xbc64d434	-0.013966609
7	0xbc2534ce	-0.01008339
8	0xbcc3d223	-0.023903912
9	0xbce91518	-0.028452441
10	0xbc831514	-0.016001262
11	0xbc1cb8cf	-0.009565546
12	0x3c2d86ca	0.010591218
13	0xba06d456	-0.0005143335
14	0x3c917797	0.01775722
15	0xbb95a94f	-0.0045673023
16	0xbc000998	-0.007814787
17	0xbcd5da70	-0.026105136
18	0xbc4fb844	-0.01267821
19	0x3c011221	0.007877857
20	0xbbafcaac	-0.0053647365
21	0xb935fb40	-0.00017355103
22	0x3c132ef4	0.0089833625
23	0xbb000ac2	-0.0019537662
24	0xbd3643fc	-0.04449843
25	0xbd57d9aa	-0.052697815
26	0x3bae3b72	0.005317145
27	0xbbe1de9e	-0.006892993
28	0xbccc98b5	-0.02497516
29	0xbc9b6191	-0.018967422
30	0x3c80a5d3	0.015704071
31	0x3bf081a3	0.0073396727
32	0xbd1a9ee1	-0.037749175
33	0x3d71c1e3	0.059022795
34	0xb9823af3	-0.00024839453
35	0xbcc8f669	-0.02453156
36	0x3ce7f4f9	0.028315054
37	0xbc7051e4	-0.014667962
38	0xbcae99f9	-0.021313654
39	0x3c8aa380	0.016923666
40	0xbd3cdae8	-0.046107203
41	0xbb270089	-0.0025482497
42	0xbc2f6aa5	-0.010706578
43	0xbcba33af	-0.022729723
44	0x3c09966c	0.00839768
45	0x3c1c618e	0.009544743
46	0xbd087bfc	-0.033321366
47	0xbbf41a76	-0.0074494435
48	0xbc9eeea8	-0.01940091
49	0x3c8dd4fb	0.017313471
50	0xbcbc682e	-0.022998895
51	0xbd15af0e	-0.0365439
52	0xbc9122a5	-0.017716715
53	0x3c5339c1	0.012892188
54	0x3c788c9c	0.015170243
55	0x3ced884c	0.028995655
56	0xbc1f1469	-0.009709456
57	0xbcb6f7df	-0.022334991
58	0xbb31361a	-0.0027040304
59	0xbb998949	-0.004685555
60	0xbc08e0b5	-0.008354356
61	0x3d161823	0.036644112
62	0x3bd2eaf3	0.0064366995
63	0xbb363f32	-0.0027808663
64	0x3c7d0533	0.015443134
65	0x3bdd369b	0.0067508942
66	0x3d97d632	0.074139014
67	0xbc97cd12	-0.018530402
68	0x3d0d9f06	0.034575485
69	0x3c050462	0.008118721
70	0x3c764db7	0.015033177
71	0x3b9ea0ad	0.0048409314
72	0xbd5dbac3	-0.054133188
73	0x3d0ca266	0.034334563
74	0x3c0e2beb	0.008677463
75	0x3c7aeed2	0.015315728
76	0xbb654860	-0.0034985766
77	0x3cabfcf9	0.02099465
78	0x3cad85e7	0.021182014
79	0x3c71bb33	0.014754104
80	0x3d21a82d	0.039467026
81	0xbd0f71e2	-0.035020716
82	0xbbad5aa6	-0.005290347
83	0x3c7d01dd	0.015442339
84	0x3d71f396	0.059070192
85	0xbb13204a	-0.0022449666
86	0x3d3b7b4d	0.045771886
87	0x3be209ad	0.006898126
88	0x3cc1b100	0.02364397
89	0xbc03c0a9	-0.008041539
90	0xbc88dd66	-0.016707134
91	0xbd2ab3be	-0.04167532
92	0xbb3e1e7f	-0.0029009876
93	0xbb17c5cd	-0.002315867
94	0x3a48ed82	0.0007664786
95	0xbbd54a43	-0.006509097
96	0x398a36d9	0.00026362276
97	0xbca3cdf3	-0.019995665
98	0xbb29f68f	-0.0025934314
99	0x3b9e9d93	0.0048405617
100	0x3b641d2e	0.0034807432
101	0x3c6d7f6a	0.01449571
102	0xba648cf6	-0.00087185146
103	0x3d1998df	0.037499305
104	0xbcf884be	-0.030336734
105	0xbc34deff	-0.011039495
106	0x3c6f0153	0.014587718
107	0x3d037239	0.032091353
108	0xbc3039b5	-0.010755946
109	0x3d231e37	0.039823737
110	0xbc9ed950	-0.019390732
111	0x3c490ffc	0.012271877
112	0xbb8eb601	-0.0043551927
113	0x3d37f6a2	0.04491294
114	0xbca72eeb	-0.020408114
115	0x3ca4b9d8	0.020108148
116	0x3c9165eb	0.017748794
117	0x3d0fe37e	0.035129063
118	0x3d02958a	0.031880893
119	0xba7f918b	-0.00097491656
120	0x3b8dbfe3	0.004325853
121	0xbbe337cf	-0.006934143
122	0xb9a69521	-0.00031773097
123	0xbc893eb1	-0.016753526
124	0x3d333bbe	0.043758146
125	0xbcc98a10	-0.024601966
126	0xbd1ea834	-0.03873463
127	0xbcb4a44d	-0.022051001

fc2.weight f4 [10, 128]
0	0xbe150842	-0.14553931
1	0x3df2c58f	0.118540876
2	0x3d8de4a3	0.069283746
3	0xbb2f29b9	-0.002672775
4	0xbd71466e	-0.058905058
5	0xbd9856dd	-0.07438443
6	0xbe0868b9	-0.13321199
7	0xbe2b0af8	-0.16703403
8	0x3d63977c	0.05556439
9	0x3c9e59b9	0.019329892
10	0xbda13533	-0.07871475
11	0xbe08d559	-0.13362636
12	0x3d3ed3e0	0.04658878
13	0x3d0dcc54	0.03461869
14	0xbe00a6a0	-0.12563562
15	0xbe22a93a	-0.15884867
16	0xbda110b0	-0.07864511
17	0x3e13fe81	0.14452554
18	0x3db9744f	0.09055387
19	0xbc51689d	-0.012781289
20	0x3cfac0d9	0.030609535
21	0x3c28f956	0.010313353
22	0x3dee0167	0.11621361
23	0xbc9887ff	-0.018619535
24	0x3d011449	0.031513486
25	0xbd9129ed	-0.07088075
26	0x3bc9dbfa	0.0061602565
27	0xbda98036	-0.082764074
28	0xbbd2e65d	-0.006436153
29	0xbdaafdcd	-0.0834919
30	0x3ce30e6e	0.027716842
31	0x3e29fab4	0.16599542
32	0xbdf012d2	-0.1172234
33	0x3dc164a9	0.094430275
34	0xbc2c9d88	-0.010535605
35	0xbd56e73a	-0.05246661
36	0x3df1f856	0.118149444
37	0xbccfe42f	-0.025377361
38	0xbc569fea	-0.01309965
39	0x3e1661cb	0.14685743
40	0xbe141b35	-0.14463504
41	0x3d5a6c22	0.05332578
42	0x3d1bea4c	0.03806524
43	0x3db28679	0.08717055
44	0x3dc9d1cf	0.09854471
45	0xbe38ceda	-0.18047658
46	0xbd03c7cd	-0.032172967
47	0xbcc971b9	-0.02459036
48	0xbe0f81a4	-0.14014298
49	0xbd52eada	-0.051493503
50	0x3c1b830d	0.009491694
51	0xbb8fc66e	-0.0043876683
52	0x3d0b3634	0.03398724
53	0x3c956ab6	0.01823936
54	0x3d7a4974	0.061105207
55	0xbe19c017	-0.15014683
56	0x3d1091b3	0.0352952
57	0xbcee7f32	-0.029113386
58	0x3bfb0f4e	0.0076617366
59	0xbdcff7f2	-0.10154714
60	0x3d21ac70	0.03947109
61	0x3ddf31ed	0.108981945
62	0x3dc1e433	0.09467354
63	0xbe63c672	-0.2224367
64	0xbd4c4fac	-0.04988067
65	0xbc791583	-0.015202883
66	0xbbdbfdfd	-0.0067136274
67	0x3dbcb89d	0.092149
68	0x3d679896	0.056542
69	0xbd2306e5	-0.039801497
70	0x3b4495de	0.0029996554
71	0xbd4b5940	-0.049645662
72	0xbdbef9e4	-0.093250066
73	0x3cc5c046	0.024139535
74	0xbdbf36cf	-0.09336626
75	0xbd9f057b	-0.07764717
76	0x3d4909d7	0.04908165
77	0x3d07785e	0.033073775
78	0xbddabae8	-0.10680181
79	0x3da21caf	0.07915627
80	0x3da1572b	0.07877954
81	0x3b3d1731	0.0028852934
82	0x3cf2129c	0.02954989
83	0xbdc3fb25	-0.095693864
84	0xbcc770ce	-0.024345782
85	0xbd710f10	-0.058852255
86	0x3d9b6056	0.07586734
87	0xbd970440	-0.073738575
88	0xbe90750a	-0.28214294
89	0x3e127738	0.14303291
90	0xbda30b6a	-0.079611614
91	0xbd2bff19	-0.041991327
92	0xbd559f9a	-0.05215416
93	0x3ca71972	0.020397875
94	0xbca4914c	-0.020088814
95	0xbd244c8d	-0.040112067
96	0x3c84f84e	0.016231682
97	0x3cad3bad	0.02114662
98	0xbdb3d9a0	-0.08781743
99	0x3db0bc97	0.08629721
100	0xbd584eea	-0.052809633
101	0xbd3396ea	-0.043845095
102	0xbd6a987f	-0.057274338
103	0xbe70bcb9	-0.23509492
104	0x3d496166	0.049165152
105	0x3d8d415d	0.06897233
106	0xbd9c9663	-0.076458715
107	0xbe1a8506	-0.15089807
108	0x3c71f326	0.014767444
109	0xbe7ebda3	-0.24877028
110	0xbd566381	-0.052340988
111	0xbd5ffb1b	-0.054682832
112	0xbd46039a	-0.04834328
113	0xbe0a6aa4	-0.13517243
114	0x3d63e620	0.055639386
115	0xbddda218	-0.108219326
116	0x3d2252b1	0.039629642
117	0x3db26ce9	0.08712179
118	0x3dbba3e9	0.09162123
119	0xbe3e27a0	-0.18569803
120	0x3ccec23c	0.025239103
121	0x3d3d3773	0.04619546
122	0xbd405074	-0.046951726
123	0x3d1361a5	0.035981793
124	0x3d1b4ad1	0.037913147
125	0xba92a399	-0.0011187672
126	0x3c248ecb	0.01004381
127	0x3d065e73	0.032804918
128	0xbd85a264	-0.06525114
129	0x3d8e665d	0.06953118
130	0x3dada97a	0.08479591
131	0xbd1fe2c7	-0.03903463
132	0xbe0f8db6	-0.14018902
133	0xbc6fe09c	-0.014640953
134	0xbc85b6f0	-0.016322583
135	0x3c25725c	0.010098066
136	0xbc9e513b	-0.019325843
137	0xbe382e2b	-0.17986362
138	0xbd3adc59	-0.045620296
139	0x3d88c725	0.06678609
140	0xbd962c0d	-0.07332621
141	0xbdcbf53a	-0.09958883
142	0x3bba7dd9	0.0056912717
143	0xbd05170c	-0.032492682
144	0xbce69409	-0.02814676
145	0xbdaa1257	-0.08304279
146	0x3dc4477f	0.09583949
147	0xbcf61570	-0.03003952
148	0xbc83d397	-0.016092105
149	0x3ce5738b	0.028009197
150	0x3cda6802	0.026660923
151	0x3bb37760	0.005476877
152	0xbde94e37	-0.113918714
153	0x3d5081f1	0.05090517
154	0x3c3d1ead	0.011542958
155	0x3d8da641	0.06916476
156	0xbe11f4e7	-0.14253579
157	0x3d0d52cb	0.034502786
158	0xbca53e1e	-0.020171221
159	0x3da6ec4c	0.08150539
160	0x3db84e30	0.08999288
161	0x3dc09e1d	0.09405158
162	0x3d82eeee	0.063932285
163	0xbd78c68c	-0.060736224
164	0xbdfb2400	-0.12262726
165	0xbc996ccd	-0.018728638
166	0xbc7a624d	-0.015282226
167	0x3e8707a3	0.26373014
168	0xbdcfa51d	-0.10138915
169	0x3d71d03f	0.05903649
170	0xbd9315c2	-0.07181884
171	0xbe09028e	-0.13379881
172	0xbe127f5f	-0.143064
173	0xbd8dac43	-0.06917622
174	0xbda49840	-0.08036852
175	0xbdc02d10	-0.09383595
176	0xbe4a53e1	-0.1975856
177	0x3d917f25	0.07104329
178	0x3ccb8a96	0.024846356
179	0xbd43a772	-0.04776711
180	0xbda8c902	-0.08241464
181	0xbb0bcdae	-0.0021332311
182	0xbe61c8b6	-0.22049221
183	0xbd4b91d2	-0.049699612
184	0x3bd7ac0f	0.0065817903
185	0x3d89bc0b	0.067253195
186	0x3def5f41	0.1168809
187	0x3ba8f709	0.005156402
188	0xbcdd8881	-0.02704263
189	0xbd81a867	-0.06330948
190	0xbe562f80	-0.20916557
191	0x3d00b4a0	0.031422257
192	0x3dd9b707	0.10630613
193	0x3d6732ad	0.056444813
194	0x3dec9ef8	0.115537584
195	0xbddc77b0	-0.10765016
196	0x3df34bc4	0.118796855
197	0xbe50f2e9	-0.20405163
198	0xbd1bb0c2	-0.038010366
199	0xbd31e1c2	-0.04342819
200	0x3b8a080c	0.004212385
201	0x3dd22084	0.10260108
202	0xbcf412b3	-0.029794073
203	0x3ba4d7a4	0.005030589
204	0x3d92564c	0.07145366
205	0x3d600049	0.054687772
206	0xbd0b45bc	-0.03400205
207	0x3d0d3efc	0.034483895
208	0x3dc43d29	0.09581978
209	0xbd5184ab	-0.051151913
210	0xbcacd24a	-0.021096367
211	0x3d2c5e76	0.042082272
212	0x3e14aa78	0.14518154
213	0x3d80008f	0.062501065
214	0xbdaeaa2f	-0.08528554
215	0x3ce5612b	0.028000435
216	0x3d2e8184	0.042603984
217	0xbd782702	-0.060584076
218	0x3d349297	0.04408511
219	0x3cddc2d1	0.027070435
220	0xbe0c2dcd	-0.13689347
221	0x3c40894e	0.011751486
222	0x3cbf21d8	0.023331568
223	0x3e26b9f6	0.16281876
224	0x3cd6e209	0.026230829
225	0x3d0995ee	0.03359025
226	0xbdf7b590	-0.12095177
227	0xbe024014	-0.12719756
228	0x3df0e8f9	0.11763186
229	0x3d49aba0	0.04923594
230	0xbdc04d21	-0.09389711
231	0x3db95821	0.090500124
232	0x3d0687fb	0.032844525
233	0xbbdd7a42	-0.006758959
234	0xbd6d66e5	-0.057959456
235	0x3db00989	0.08595569
236	0xbded5d73	-0.1159009
237	0x3e25202b	0.16125552
238	0x3c698427	0.014252699
239	0xbd41957d	-0.047261704
240	0x3d261639	0.040548537
241	0x3d509e32	0.050932117
242	0xbd1b6d6b	-0.037946146
243	0x3d64038d	0.05566745
244	0xbd01eaa3	-0.031717908
245	0xbd81aed0	-0.06332171
246	0xbc8a8704	-0.016910084
247	0x3ce54af2	0.027989838
248	0xbdb82b47	-0.089926295
249	0xbc674f4c	-0.014118027
250	0x3dae790e	0.08519183
251	0x3d8d72ae	0.06906639
252	0x3da50ac2	0.080586925
253	0xbda755aa	-0.08170636
254	0xbc875417	-0.01651959
255	0x3d0bb437	0.034107413

fc2.bias f4 [10]
0	0xbb6558eb	-0.0034995626
1	0xb99d25c8	-0.00029973523
2	0xbcf60d71	-0.030035706
3	0xba31895b	-0.0006772482
4	0xbd0dd8eb	-0.034630697
5	0xbd2efebc	-0.042723402
6	0xbc5bff7d	-0.013427612
7	0x3ce3c887	0.02780558
8	0xbcf81f2d	-0.030288303
9	0xbd8030a6	-0.06259279
