ndbb_models/traffic_sign_model.pth (torch, 933893 bytes, 12 tensors)

conv1.weight f4 [32, 3, 5, 5]
00000000: 8dd9 b6bd d270 223c 499f 2ebd 7a20 d83b
00000010: 02d1 943d 6fca 77bd 16a8 45bd b657 3ebd
00000020: c5ac cb3d 5765 b2bd 131c 563d 64cb 21ba
00000030: b37f 66bc 15fa 5ebd 2b2e 823b 42b0 a9ba
00000040: 2391 fb3c e82a 0bbd 3cc3 acbd 9781 cabd
00000050: c80d d3bd 963f e23c 734d 00bd 9e27 e5bc
00000060: 5e2b 56bc ff25 2d3d 0885 0b3d 649e bd3d
00000070: 8ea4 57bd 216a 89bd 2717 b7bd e521 b1bd
00000080: 451a 30bd ea9a a73d 6ca2 87bd 45cd 60bd
00000090: 7f4e 9c3d 9e25 6bbd 04f3 7fbd 153a ff3d
000000a0: 853b 443c 7823 43bd 2bb9 673d bd43 dc3c
000000b0: 3264 93bd ce7b f73d 1f2b 81bc 4790 b03d
000000c0: fadd 5e3d d2b7 683d 3fe6 b2bd 8663 a43d
000000d0: 8ab0 a2bd 6f02 a23d b286 9cbd 1d2a 93bd
000000e0: abab eb3d 2f25 d73d 3d3e 13bd cc6b 7cbd
000000f0: 2f08 be3d 1971 a13d 6a85 f13d d035 a7bd
00000100: 1843 aa3d c4ea 9939 764f eb3d 04c7 e6bc
00000110: f681 84bd e048 afbd e992 00bd e4cc b03d
00000120: e308 ed3d 6ed6 c93d 4ad7 eb3d 8a93 653c
00000130: 1af3 c5bd 79c3 5dbd 8862 7c3b bb4b 0e3e
00000140: e317 e3bd a6e5 463c 5401 0e3c 1595 bf3d
00000150: bb42 083d cdae 813c 8b24 ffbd ab3a 8dbd
00000160: 57f5 e33d 8dfb 653c 451a 1b3c 2db9 81bd
00000170: bc0b 76bd 1ac3 adbc c1d4 033e 00a3 9e3d
00000180: 34bb edbc fa38 88bd ae50 4abd ea8c 853d
00000190: b20e bdbc 8b09 6e3d 877d 00be f066 9abd
000001a0: 004d c73d 3f95 f7b9 b0da 01be 2406 463d
000001b0: a82d c33c 4ff9 1a3e f202 d7bd 2173 783d
000001c0: d092 d5bc 9d59 b73d 591e e43c 5e4c 103d
000001d0: f35f e5bd e365 9b3d b8a5 e03c e30c e93d
000001e0: 6f79 74bd 68b6 a33d 4b7f 94bd b2e5 e33d
000001f0: 0174 a33d 9e8f 113c d667 393d c03d 14bd
00000200: 2cd7 10be ac74 d13d b6db ad3d c3e0 3e3d
00000210: e014 983d 53b5 86bd c23f 82bd a5b2 35bc
00000220: a6a1 25bb 0bb4 13be c125 983d 1d2a 373d
00000230: 634a 60bc 4fa3 ddbd 4ca0 39bb cf52 af3d
00000240: 91bd 5d3d 2518 133d 1228 fcba 288e b93b
00000250: 318f 263c 45f2 1fbd 01b3 81bc 01eb fe3c
00000260: c9d1 623d 3cdd bebd ad9f 313d 930c 213d
00000270: 426a fbbd ddb8 163b 27e1 a4bd 0c46 db3d
00000280: a58e bfbd e67e 90bd 8767 d5bd 9a28 67bd
00000290: a2f6 a6bd 0b46 f3bd 62af 2e3b 42d8 233d
000002a0: ede0 9d3b 7a7a 473c f032 e2bd 2d80 cc3d
000002b0: cac6 73bc 282f f5bd a1a8 a5bb 1642 69bd
000002c0: ad9a 0c3d dbf4 9abd f3f7 d23d 5b1d d23c
000002d0: 7cee b03d fc83 8a3d dfbe 9dbd 0323 3dbd
000002e0: 39f4 ca3d afa6 a1bd 5a6a 9d3d e028 d5bb
000002f0: ad6b 74bd c67b 03bd 16b5 ea3d 656a 783d
00000300: dd80 14bd e78f 7fbd 4d14 2c3d 9bce b8bb
00000310: 263e c4bd 1e26 a93d ebf7 b13d c107 bcbc
00000320: fe79 94bd 9a3d e83d 03db cb3d c33d 7cbd
00000330: 5af4 ca3d aef6 9f3d 4dca 0abc 9559 143c
00000340: 4a10 943d fdf5 15bd e0dd 033d af28 33bd
00000350: 5984 6dbd 9315 cd3d dac3 5a3d 24c4 013e
00000360: 75e1 23bd eec2 a43d afcd 973d b008 f63d
00000370: 758d 77bd 3a82 a2bd a678 94bb 6373 983c
00000380: 5966 44bd a4b1 5cbd ab69 5fbd 1560 53bd
00000390: c744 663d 50c3 863d f1c8 b63d 5af7 943c
000003a0: b3be b73d bde3 edbd a14b e2bc 6894 f7bd
000003b0: a2a3 df3c 1cdb e93b e4f1 01bc 79f0 9e3c
000003c0: 5077 a0bd abea 29bd 4dd1 c93d 7c28 c6bd
000003d0: 70c5 3c3c 238e 41bc 62e5 15bd 4b18 c13d
000003e0: fdb4 8b3d c9bf 05bd 4f70 24bd daf2 25bc
000003f0: e964 ff3c ab8d 19bd b947 94bc 0a29 b1bd
-0.08928213 0.009914594 -0.042632375 0.0065956684 0.072664276 -0.06049579 -0.048256002 -0.046470366
0.099450625 -0.08710735 0.052272867 -0.000617197 -0.014068532 -0.054437716 0.003972789 -0.0012946206
0.030708855 -0.033976465 -0.084356755 -0.098879986 -0.10305363 0.02761821 -0.03132386 -0.027972993
-0.013071863 0.042272564 0.034062415 0.09258726 -0.052647166 -0.067096956 -0.08939963 -0.08649043
-0.042993803 0.081838444 -0.066227764 -0.05488326 0.076321594 -0.05740892 -0.062487617 0.1246225
0.011977081 -0.047641248 0.056573074 0.026887769 -0.07196845 0.12084161 -0.015767632 0.08621269
0.054410912 0.05681593 -0.08735322 0.08026795 -0.079438284 0.079106204 -0.076428786 -0.07185767
0.115073524 0.10505139 -0.035948027 -0.06162624 0.09278905 0.078829 0.11793025 -0.08164561
0.08313578 0.00029357348 0.11489765 -0.02817107 -0.064701006 -0.08558822 -0.031390104 0.0863283
0.11573961 0.09855352 0.115156725 0.014012227 -0.096655086 -0.054141495 0.0038510878 0.13896076
-0.110885404 0.012139713 0.008667309 0.09354607 0.033266764 0.015830422 -0.12458142 -0.06895956
0.11130779 0.014037025 0.009466712 -0.063341476 -0.060069785 -0.021211196 0.12874128 0.077459335
-0.02901993 -0.066514924 -0.04939335 0.06521018 -0.023078296 0.05811457 -0.12547885 -0.07539165
0.097314835 -0.00047222708 -0.12681079 0.0483457 0.023825482 0.15134166 -0.10498609 0.06065667
-0.026070982 0.08952639 0.027846502 0.03522908 -0.111999415 0.07587793 0.02742277 0.11379411
-0.05968612 0.079937756 -0.07250842 0.11127795 0.0798111 0.008884339 0.04526504 -0.036191702
-0.14144582 0.102273315 0.08489172 0.04660107 0.074258566 -0.065775536 -0.06359817 -0.011089955
-0.0025273352 -0.1442415 0.07429076 0.044717897 -0.01368961 -0.10822164 -0.0028324304 0.08560716
0.054135863 0.035911698 -0.0019238016 0.0056626983 0.010165975 -0.039049406 -0.015832426 0.031117918
0.055375848 -0.09319541 0.04336517 0.039318632 -0.122761264 0.002299837 -0.08050757 0.1070672
-0.09353379 -0.07055454 -0.10420137 -0.056435205 -0.0815251 -0.11878594 0.002665483 0.04000116
0.004818073 0.012175197 -0.11044872 0.09985385 -0.014878938 -0.11971885 -0.0050555025 -0.05694779
0.034327198 -0.07566234 0.10301199 0.025648763 0.08639237 0.06763455 -0.077024214 -0.046175968
0.09909863 -0.078931205 0.076863006 -0.006505117 -0.059673 -0.03210046 0.11460321 0.06064834
-0.036255706 -0.062393095 0.042011548 -0.0056398637 -0.095821664 0.082592234 0.08689865 -0.022952916
-0.07249831 0.113398746 0.099538825 -0.061582338 0.099098876 0.07810722 -0.008471084 0.009054561
0.072296694 -0.036611546 0.03219402 -0.04373997 -0.057987545 0.100138806 0.053409435 0.12672478
-0.040009934 0.080449924 0.07412278 0.12013376 -0.06043764 -0.07934995 -0.004530984 0.018609708
-0.04794917 -0.05388035 -0.054544132 -0.051605303 0.056217935 0.06580222 0.08925045 0.018184353
0.0897192 -0.11615703 -0.027623953 -0.12088853 0.027299706 0.0071367156 -0.007931206 0.019401776
-0.07835257 -0.041483562 0.09854374 -0.096756905 0.011521682 -0.011813673 -0.03659571 0.09428462
0.0682163 -0.032653604 -0.04014617 -0.010128701 0.031176047 -0.03748862 -0.018100606 -0.08650406

conv1.bias f4 [32]
00000000: 96df 3c3d 6523 083d 1cb9 6b3d c274 69bc
00000010: c680 96bd 488f ff3d dae6 f7bb 9ed1 e2bd
00000020: d4c4 083d a966 4d3d e75e 6cbd 574b 663d
00000030: 8c23 d23d 11a7 aebd 1df8 bf3d 488c 05be
00000040: 7648 a6bd f737 3d3c 7e74 113d 2488 7f3d
00000050: a793 8d3c df46 d53d 78b6 453d 9789 a03d
00000060: 660d 93bd 8d66 7f3c 1161 df3d cc22 46bb
00000070: 1a94 d83c d556 c3bd 6f22 cbbd 5448 debb
0.046111666 0.03323688 0.05754958 -0.014249029 -0.0734878 0.124785006 -0.0075653614 -0.110751376
0.033390835 0.050146732 -0.057707693 0.056224193 0.10260686 -0.08527959 0.09373496 -0.13041794
-0.081192896 0.011548988 0.035511486 0.062385693 0.01728232 0.10413908 0.04826972 0.07838743
-0.0718029 0.015588415 0.10907186 -0.0030233143 0.026437808 -0.09538046 -0.09918677 -0.0067835245

conv2.weight f4 [32, 32, 5, 5]
00000000: b0ec 41bd f036 1ebb 3150 fdbc 4c75 debc
00000010: c243 75bd c42b 14bc a0ac 9dba 5d19 2ebb
00000020: 48eb 66bd bb31 bfbc ab18 1dbd 7b7e d8bc
00000030: dc9f e7bc 6b3e 7dbd d9df 3fbb a2b1 63bc
00000040: ed4c 37bc 87c3 2cbd a644 a0bc d0b2 0ebd
00000050: 5e4c 2bbd d2ea 4abd d862 50bd aeab 1cba
00000060: 8e31 4bbc ed7f 08bd 9e70 4b3b e814 1c3d
00000070: 69ce 483b d2e1 e4bc ef12 7cba 4240 aabc
00000080: 62fc 003c cbba b6bc 56c5 ee3c c3a3 09bc
00000090: 4a14 fb3c 386b ffbc ebb3 f5bc 120a 46bc
000000a0: d776 14bd c841 77bb 3943 be3c 8bea 1abd
000000b0: d9a2 eabc bf15 b73b d266 b6bc 0faa 1f3d
000000c0: d2f8 2d3b ad2e 7bbc d64a 5ebd efe8 353c
000000d0: 4a22 37bc ecd3 1ebd d45d 05bd a1ca 3fbd
000000e0: e07f adbc 46d4 e3bc dd08 08bd 4255 1f3c
000000f0: abad 6dbd 6e6d 35bd 1804 a1bc 475f 12bd
00000100: d50f 5cbd a5ca 0fbd 5e58 abbc 4033 0fbd
00000110: 762b 89bc 5712 87bd 8ab3 70bd 43df 89bd
00000120: 2e01 90bc 7b09 a3bc af45 a1bd 344f 8f3c
00000130: 5205 cfbc 6735 273d 4b30 8cbc 9418 f93c
00000140: 4716 eabc e297 6f3c b029 17bc de6a d4bc
00000150: a598 073d 3da5 feba c1cb de3c aba9 0c3d
00000160: 0f85 c53c 3fd0 463c cf9d bbbc 85ed 75bc
00000170: 922d 093d 064a c4bc ad25 0bbd 946d b1bc
00000180: 6916 ff3c 1461 243d 1c76 9cbc 7cd2 253d
00000190: 7841 c13c 3ac5 1abd 0c7a c0bc 7185 d23b
000001a0: ee63 a83b de35 e23c df12 b83b 353b d83b
000001b0: 48bd a0bc 05dc 03bc 41b6 0cbd 294f 5ebd
000001c0: 7c8b e7bc 8c15 3abd 54dd 32bd 3fa3 e4bc
000001d0: 76c7 bebc 6002 46bc 5b35 913c 85d0 48bd
000001e0: df5b c2bc d108 4bbd cb0a c1bc e560 9fbc
000001f0: 4eb0 c438 7f40 3a3d 76b6 02bc 8dd2 113d
00000200: 6a48 9abc cbae d33c 473e 403d 63f8 ce3b
00000210: b918 473a a71b c83c 9cfe 8dbc a3bf 893c
00000220: 2e88 243a 1e29 90bc afa2 083c d3a8 c5bc
00000230: f143 b63c 5064 5a3d 6e90 9f3c 0e7c d3bc
00000240: aae0 043d 6f27 593d 8bb5 0f3b 4f42 5b3d
00000250: 28d3 de3b 97b2 94bc 822c dd3c ff57 ec3a
00000260: f0f4 9c3c 84b8 d1bc e600 fcbc 1ab6 993c
00000270: a128 0bbc 6738 e43c 09ba bfbb 93d9 983b
00000280: 1408 dcbc 13cb c53c 2eb3 e0bc 074f b73c
00000290: b0f4 453b 8613 6dbc 9454 fa3c a070 873b
000002a0: b27e 63bc a606 b6bc 8d82 a9bc 3446 4b3c
000002b0: 407c edbc 997c b1bc 1461 15bc 7a5f d13c
000002c0: f95c bdbc de55 df3c bcb0 7dbb ad0a fabc
000002d0: 00d8 c03b 9126 b63c d8fa c13b a904 5ebc
000002e0: 6cab 5dbc 1b92 96bc 52a0 86bc 382d 4fbc
000002f0: b5ff 0b3d cf01 dd3a 68b6 12bd c127 333c
00000300: 2c82 29bc be9a fc3c 1a88 243b 7d08 79bc
00000310: 8ea3 733b 8ce7 febc 2314 21bd ec08 ba3b
00000320: d1dc bcbc 222a 2d3d 04fc 503d dec4 82bc
00000330: ee70 b63c 34c7 77bc 4620 583d 9d94 713c
00000340: fabe 96bc fc9d b13c 9c1e 333c 9686 b73c
00000350: 3cb7 403d d044 4ebc 0916 143d 1c50 053d
00000360: b0ac 9abb c574 1c3d 7190 183c 4e11 513c
00000370: 791c 843c 31b7 cc3c f10f 3bbc ca18 9ebc
00000380: a6ba 2d3d 5b63 00bd bb2f a5bb 76e8 06bd
00000390: 91fb 5bbc 3668 b9bc d88a 82bc 6b7d 16bd
000003a0: 40ca b2bc c5d5 90bd fa0e f5bc 9b8a 94bd
000003b0: 9865 65bd 4413 5abb cd74 44bd 0e6e e1bc
000003c0: adef 77bc bbd8 0dbd 6987 53bd 185a 4bbd
000003d0: 6576 47bc 646c 5abc ac3d 0bbc 8bf7 a6bd
000003e0: e732 9bbd 1f0b 60bd b8aa fbba 8ad5 c5bc
000003f0: dafb fbbc 000b d33c 7300 c7bc 222f 0b3d
-0.047344863 -0.0024141632 -0.030922027 -0.02715554 -0.059879072 -0.009043638 -0.0012029596 -0.002656541
-0.056376725 -0.023339143 -0.038353603 -0.026427498 -0.02827447 -0.061827105 -0.002927771 -0.013897331
-0.011187774 -0.042178657 -0.019563984 -0.034838498 -0.041820876 -0.04954035 -0.050875515 -0.000597651
-0.0124019515 -0.033325125 0.0031042467 0.038105875 0.0030640608 -0.02793971 -0.00096158584 -0.020782594
0.007872673 -0.022305867 0.029146831 -0.00840086 0.030649323 -0.031179056 -0.029993018 -0.012087362
-0.036246147 -0.0037728418 0.023225414 -0.037821334 -0.028642105 0.005587309 -0.022265825 0.03898054
0.0026546014 -0.015330953 -0.054270588 0.011102899 -0.011177609 -0.038776323 -0.032560185 -0.0468241
-0.02117914 -0.02781118 -0.033211578 0.009724917 -0.05802695 -0.044293813 -0.019655272 -0.035735395
-0.053726036 -0.035105366 -0.02091616 -0.034960985 -0.016744357 -0.06595295 -0.05876497 -0.06732037
-0.017578688 -0.019901982 -0.07874619 0.017493822 -0.025271092 0.040822413 -0.017112872 0.030407228
-0.028575076 0.014623614 -0.009226248 -0.025929864 0.033104558 -0.0019427907 0.027196767 0.034341495
0.024111299 0.012134611 -0.022902397 -0.015010242 0.033490725 -0.023961078 -0.033971477 -0.021658696
0.031138616 0.040131643 -0.019099288 0.040483937 0.023590788 -0.037785746 -0.023495696 0.006424599
0.0051388657 0.027613577 0.005617484 0.006598855 -0.019621506 -0.008048062 -0.0343535 -0.05427471
-0.028264754 -0.045430705 -0.043668106 -0.027909873 -0.02328847 -0.012085527 0.017725637 -0.049026985
-0.023725448 -0.049568955 -0.023564717 -0.019455383 9.3788476e-05 0.045471665 -0.007978072 0.035601187
-0.018833358 0.025840184 0.046934392 0.006316231 0.00075949315 0.024427248 -0.017333321 0.016815012
0.0006276396 -0.017597731 0.008339568 -0.024128353 0.022249194 0.05331832 0.01947805 -0.02581599
0.03244082 0.053016122 0.0021928276 0.053530034 0.006800074 -0.018151565 0.026998762 0.0018031596
0.019159764 -0.02560068 -0.030762147 0.01876359 -0.008493573 0.027858926 -0.0058510345 0.0046646087
-0.02685932 0.024144685 -0.02742919 0.02237655 0.003020566 -0.014469987 0.030557908 0.004133299
-0.013885187 -0.022219967 -0.020692134 0.012406874 -0.028989911 -0.021665858 -0.0091173835 0.025558222
-0.023115622 0.027262624 -0.0038710078 -0.030522669 0.005885124 0.022235187 0.0059197955 -0.013550916
-0.01352964 -0.018380215 -0.016433869 -0.012645058 0.034179408 0.0016861501 -0.035818487 0.010934771
-0.010345977 0.030835506 0.0025105537 -0.015199778 0.0037176344 -0.03111627 -0.039325844 0.005677333
-0.023054512 0.04227651 0.05102159 -0.015963014 0.022270646 -0.015123177 0.052765153 0.014744905
-0.018401612 0.021681778 0.010932591 0.022403043 0.047049746 -0.012589648 0.036153827 0.0325471
-0.004720293 0.038197298 0.009311781 0.012760473 0.016126858 0.024989696 -0.011417375 -0.01929893
0.04241433 -0.031344753 -0.0050410903 -0.032936536 -0.013426677 -0.0226327 -0.015935346 -0.0367407
-0.021824956 -0.07072023 -0.029914368 -0.072529994 -0.05600509 -0.0033275643 -0.047962952 -0.027518298
-0.015132827 -0.03463052 -0.05164281 -0.049646467 -0.012174224 -0.013331506 -0.00849859 -0.08152684
-0.07578068 -0.054698106 -0.0019200658 -0.024149675 -0.03075974 0.025762081 -0.024292206 0.033980496

conv2.bias f4 [32]
00000000: 2e70 ac3c 3498 de3c ed01 b7bb 6768 1b3d
00000010: 7c94 dbbc 51f6 3bbc 96f1 47bc c65e 44bc
00000020: 1901 453c c4c8 203c 29b6 3e3d 2c84 6ebc
00000030: 9e9b c2bc e0ed 99bc 96d2 2d3d 53ba 4e3c
00000040: 4cd7 e93c 0555 14bd 8db5 72bc 2131 ccbc
00000050: 9d3c 843c 2cad 9d3c d91d c93c 53f3 433c
00000060: 36ef d33b 79d5 343b fbda 45bc 0d32 333c
00000070: f824 f5bc b236 783c cc02 ea3c 9a39 e63c
0.021049585 0.027172185 -0.0055849464 0.037941363 -0.026804201 -0.011472301 -0.012203595 -0.011985486
0.0120241875 0.009813491 0.04656044 -0.014557879 -0.023755845 -0.018790185 0.04243716 0.012617665
0.028545044 -0.036213893 -0.014813793 -0.02492577 0.016142184 0.019247614 0.024550365 0.0119598685
0.006467725 0.002759306 -0.012076135 0.010937226 -0.029924855 0.015149759 0.028565787 0.028103638

conv3.weight f4 [64, 32, 3, 3]
00000000: 881b 8abd f54a 8c3c 7cda 04bc 411a 08bd
00000010: e234 743c ea45 513d 50c2 9abd bff0 c63c
00000020: bbae 51bd a8a6 cf3c 834a 233d f73d c3bb
00000030: 468b b9bc 8040 703c 2a07 72bc 04a4 a0bc
00000040: 3a31 f9bc 82fd 37bd 59b3 b23c 4e2d 84bd
00000050: 52a2 d33a 948c 293d fb86 453b 8617 ebbb
00000060: 7058 84bd 6faa cfbb e032 653b b9d0 89bd
00000070: e909 113d 4e5f b1bc 9d10 69bb 7284 a9bd
00000080: d07e d8bd ea5b 853d 18bd 00bc 940a 8dbd
00000090: 254a 19bd c5f6 0abc fa73 c63c 1c85 ac3c
000000a0: bd46 433d 226e 36bc e682 883b d4d3 063c
000000b0: a5b5 d9bc e46b 8b3c 01b3 6a3d 9cc0 3cbc
000000c0: cbac cd3a 9c30 34bc 93bf f6bc 88ad 013d
000000d0: f0e7 e0bb ba78 ff3c e4a5 36bd a720 603c
000000e0: 1be5 a13c 6ab0 d13b 5d35 153c c1a0 f93c
000000f0: 716b 2b3d ea8e 8ebc af64 53bd af1b 32bd
00000100: aab8 bbbc ff2b 98bc 3249 8abd 238a 80bd
00000110: b2b8 77bd 27a3 4d3c ff10 793c bfb3 18bd
00000120: 14da f9bd dd86 fabd 3b43 06bd eeaf eabc
00000130: 3695 57bd 3f55 3fbc 4f9a c4bd dcd1 eabd
00000140: 9637 653a 8dc8 9e3b 2dad 32bd 014d c4bc
00000150: f12a b7b9 611c 763c 6f15 2d3c 968c 153d
00000160: debf c73c 3565 b33c a224 9f3c d0d4 8bbc
00000170: 85e3 33bd ba9a 683d 85c4 5bbd a43a c0bd
00000180: 01ae 853d bb3b 363d 27a5 483a c52b 1a3d
00000190: 7c71 35bd 47af 5f3d a806 213d 180d 3bbd
000001a0: b162 80bc 67a4 05bd 9916 373d ab82 2e3d
000001b0: ea7d 9dbd 1340 083b a647 34bd f069 3c3c
000001c0: 311f 193c 6b40 673d bf09 2abc bbf5 b73b
000001d0: 0a85 05bd 93e5 bcbc 85c7 82bd 4091 cfbb
000001e0: b2ba ca3c 636b 84bd 51d1 963c 9f63 a73c
000001f0: 1a0b 97bc b8da 4d3d ce83 503d ceed 573e
00000200: c8f3 553d 0df0 f8b9 f869 913d 98af c63d
00000210: eda3 39bd fdb7 a43d 0f1b e0bc 49ff 223b
00000220: bee8 6a3a 1693 c9bc 7c06 8bbc 1e5d 333c
00000230: 754f efbc 0671 16bd 87ca 74bc 1eb4 033d
00000240: cae3 dc3a 434c 8d3c f11d e1bb 0d23 113c
00000250: 12e8 243c b6a3 6cbd b466 4fba 47cb 663d
00000260: b68f 21bd fe2e b33b 59e6 f93c c770 a8bc
00000270: 576a 59bd ed54 453d cd71 623d 5f51 3b3d
00000280: 59e1 113c dc47 16bd ea24 303d 485f 50bd
00000290: dd3a 08bc 791f 17bd 1b0e 5dbd d5c4 18bd
000002a0: 3da9 123c 9e1f df3c 2e9d f83c fa9c a63d
000002b0: b4fb 283d c267 093d ddd6 ce3d 0e53 b0ba
000002c0: 47fd 19bd 65e5 af3d fa69 2b3c 556b 263d
000002d0: f98a 343d 05e5 693d 849f eebb 8d7a 303d
000002e0: 2c41 753d 804d c4bb 4779 8d3d 86ec 063e
000002f0: 75e0 923d 9d8b 1abd a2c0 ce3c 11fc 81bd
00000300: 174d ee3c 1817 1f3d caaa a4bb 0076 5fbd
00000310: db44 113b 6cea 573d bd5d 0a3d 71f9 1b3c
00000320: 96a2 80bd e221 6e3d 7214 363d 8769 39bd
00000330: 53c8 9fbc a2da 27bd 9f0a d43c e4d8 213c
00000340: 0604 03bd 130f 253d d328 3d3d 05f2 ebbc
00000350: 9e18 a63b 9132 c3bc 970c ac3b 4715 8c3c
00000360: 15ad 35bd a75c 3fbd b32e 5fbd 381a 073d
00000370: 94a3 38bc c6e6 1f3d ec54 4b3c be27 76bd
00000380: 7d8f 013d fc4d f33c e638 40bc 9f99 3f3d
00000390: bde5 8dbc 7566 78bd 6b9e 853c 391d bb3c
000003a0: 4a1f 913c ddb9 063d 4e5d 0abd bd89 40bd
000003b0: 9876 c93b 85bc c23c e314 833d 8ccd 503c
000003c0: c3c6 45bd 3a0f b0bc 1ea4 96bc 42de f6bc
000003d0: 2bc0 883c 4ccb 99bd 9df4 3fbd 6c74 d43b
000003e0: b3cf 69bd 9cd0 413b 243c d23c fe5f 6ebd
000003f0: 1b50 16bc 24d0 34bd 30ad 0bbd 6c7b 51bd
-0.067435324 0.017125586 -0.008108731 -0.033228163 0.014905186 0.051092066 -0.075565934 0.024284719
-0.051192027 0.025348023 0.03986598 -0.0059583145 -0.022649419 0.0146638155 -0.014772216 -0.019609459
-0.03041898 -0.0449195 0.021814035 -0.06453954 0.0016146398 0.04139383 0.003014027 -0.007174435
-0.064621806 -0.006337456 0.003497295 -0.06729264 0.03540984 -0.02165189 -0.003556288 -0.08277215
-0.105710626 0.06511672 -0.007857583 -0.06886783 -0.037424225 -0.008481686 0.024225224 0.021059565
0.047674883 -0.011134656 0.004165995 0.008229215 -0.026575873 0.01701922 0.057299618 -0.011520531
0.0015691755 -0.0109979175 -0.030120647 0.031659633 -0.0068635866 0.031185497 -0.0445918 0.01367966
0.019762566 0.006399204 0.009106961 0.030472161 0.04185051 -0.017402131 -0.05160969 -0.043483432
-0.022915203 -0.018575666 -0.06752242 -0.062763475 -0.060478874 0.012551106 0.015201806 -0.037280794
-0.12199798 -0.122327544 -0.03277896 -0.028648343 -0.052632533 -0.011678039 -0.095997445 -0.11465809
0.00087439397 0.004845685 -0.043622185 -0.0239625 -0.00034936474 0.0150214145 0.010564192 0.036511026
0.024383482 0.021898845 0.019426648 -0.01706925 -0.04391815 0.056788184 -0.053654213 -0.09386185
0.06527329 0.044490557 0.0007654004 0.037639398 -0.04429768 0.054610517 0.03931299 -0.045666784
-0.01567206 -0.03262749 0.044699285 0.042605083 -0.07690032 0.0020790144 -0.04401364 0.011499867
0.0093458155 0.056457918 -0.0103783 0.00561401 -0.03259758 -0.023058688 -0.063857116 -0.006334454
0.024747226 -0.06465795 0.018410357 0.020433245 -0.01843791 0.050257415 0.05090695 0.21086809
0.05223444 -0.00047481098 0.0710029 0.097014606 -0.045322347 0.080429055 -0.027356653 0.00248714
0.0008961073 -0.024606269 -0.016970865 0.010947494 -0.029212693 -0.03672888 -0.014940864 0.032154195
0.0016852554 0.017248278 -0.0068700244 0.008858454 0.0100650955 -0.057773314 -0.00079117273 0.056346204
-0.039443694 0.0054682484 0.030505346 -0.020561589 -0.05307993 0.048176695 0.05528431 0.0457319
0.008903825 -0.036689624 0.043003954 -0.050872117 -0.008314815 -0.03689525 -0.05396853 -0.03729709
0.008951482 0.027236756 0.030348387 0.0813541 0.041255668 0.033546217 0.10099576 -0.0013452487
-0.03759506 0.085886754 0.0104622785 0.040629704 0.044077847 0.057103176 -0.0072821993 0.043085624
0.059876606 -0.005990684 0.069078974 0.13176164 0.07171718 -0.0377308 0.025238339 -0.06346906
0.029089494 0.038840383 -0.0050252425 -0.054555893 0.0022166285 0.052713796 0.033780802 0.009519921
-0.06281011 0.058137782 0.044453092 -0.045266654 -0.019504702 -0.04097999 0.02588397 0.009878371
-0.03198626 0.04029758 0.04618151 -0.028801927 0.0050688526 -0.023827823 0.0052505243 0.01709999
-0.044354517 -0.04671922 -0.054487895 0.03298399 -0.011269469 0.039038442 0.012410384 -0.060096495
0.03163098 0.029700272 -0.011732316 0.046777364 -0.017321462 -0.060644586 0.016310891 0.022841083
0.017715115 0.032892097 -0.03378039 -0.047006357 0.0061481707 0.023771534 0.06400468 0.012744319
-0.048285257 -0.021491636 -0.018388804 -0.030135278 0.016693195 -0.07509479 -0.04686414 0.006483605
-0.057082843 0.0029573804 0.025663443 -0.058197014 -0.009174372 -0.04414381 -0.03410071 -0.051143095

conv3.bias f4 [64]
00000000: 214e 833d 38c8 023d fcd0 86bd aa1b 343d
00000010: c9d4 1a3c c6a0 cebb 5d88 5abd e4e5 c73d
00000020: 13ae fb3c 8eeb 0f3c 6924 623d cefd 753d
00000030: a620 ee3d 2ed0 0abd 98fb bf3d cbd8 413e
00000040: eff2 8c3d f428 ba3d 4b61 dcbc 7d36 ca3d
00000050: d169 733d 485c 893d 06c4 6e3d a7c2 9c3c
00000060: 2c0c b6bc 7910 0a3d 29d9 0a3d d05f ad3d
00000070: 0e6a df38 7c98 133d 89d1 4fbd 2c53 88bd
00000080: aaa3 65bd 570f 043d de2f a33c 7e53 023e
00000090: c0a7 b43c dd7e a63d c96b 9e3c b49c 7dbd
000000a0: 10bb b23d e007 debc a5a9 843d 9923 643d
000000b0: 1e06 be3d c5da c93b c3ff d63d bea1 383d
000000c0: 607f 7fbd 1c76 81bd 0907 683d 6d80 7f3d
000000d0: 9eb4 503d 4568 b13d 80fa e23d 420d 833d
000000e0: 7c87 b03c 40ab c03d 7c95 3bbd 0922 a33c
000000f0: c602 ff3c ca15 f73d 90fb 9d3d 8688 2b3d
0.06411386 0.031929225 -0.06582829 0.043971695 0.009450146 -0.006305787 -0.053352702 0.09760645
0.030722653 0.008784188 0.055210505 0.0600565 0.11627321 -0.033889942 0.093741596 0.18930356
0.068822734 0.090898424 -0.026901862 0.09873674 0.059427086 0.067070544 0.05829241 0.019135786
-0.0222226 0.033707116 0.033898506 0.084655404 0.00010653223 0.036034092 -0.050736938 -0.06656489
-0.056064285 0.03224119 0.019920286 0.12727162 0.022052646 0.08129666 0.019338505 -0.061917022
0.087270856 -0.027103364 0.064776696 0.05569801 0.092785105 0.0061601126 0.104980014 0.045076124
-0.062377334 -0.06321356 0.056647334 0.062378336 0.0509535 0.08662466 0.11082935 0.06399013
0.021548979 0.09407663 -0.045796856 0.01991369 0.031129252 0.12064703 0.07713997 0.041878246

conv4.weight f4 [64, 64, 3, 3]
00000000: 97c0 35bd 4258 f3bc 0c55 803c 41d2 b6bd
00000010: 098a 27bb dd42 423d e2a2 91bd f65b 2cbd
00000020: f781 4a3d bd4f 283d 776c 293d db65 38bc
00000030: 209f 933b df73 3bbc d919 eabb c25d 393d
00000040: 01f9 163d 9eca a13c 02a3 9abc 0953 993c
00000050: e814 63bb 0edd 833a dddb 0e3d 747d fb3c
00000060: 6eaa b73a 3f22 7f3c 9761 17bc a8cd 333d
00000070: b2a3 4d3d 1460 8cb8 1938 8b3d 3da3 4b3d
00000080: 29e1 51bd f67c e63c 9004 6d3d ef78 753c
00000090: 541c fb3c 157e 043d f042 efbc bdca 1abd
000000a0: e62f 37bb 93e7 d03c ad4c bf3c 1585 483a
000000b0: cfa0 c8bc 5c5e e93b b162 f83c 42ad 523d
000000c0: b683 bdbc dd77 59bb 42d1 953d bfde 87bc
000000d0: 2be4 91bc f17f be3c fdce 1c3d 7881 5f3d
000000e0: 1096 12bd 4a6e 053d 4d37 5f3d 2bc3 14bd
000000f0: 9849 273d 2050 c23b c469 06bd 4c31 c23c
00000100: 18d9 4a38 1f65 61bd 80df 723d 0448 1a3d
00000110: 01a5 72bd 2c6d 7f3d c789 003d 4a7c a1bd
00000120: cb2c b03b 682d 2d3c d784 e83b fdd2 8e3c
00000130: a796 55bb 6b17 0abc 69a9 b93d 7e55 883c
00000140: 8710 aebc 8316 113d 2443 0f3d 425d a6bb
00000150: 55be 96bc 93a4 af3d b495 033d d105 66bc
00000160: 6203 4a3d 3893 423d 7e4f 51bc 4184 2cbd
00000170: d3e1 afbd 43c0 a43d 001a b23c 3384 6dbd
00000180: df54 c63d 7426 e2bb e581 b7bd 222a 283c
00000190: d6a0 013d 79e1 1abd efb2 8b3c 9274 5a3c
000001a0: 2650 f93c 2ab9 873c 99b4 733d 4268 a8bc
000001b0: 5b92 70bd db1f 2fbd 913c 60bd 72f0 64bd
000001c0: 15df aabd f6b7 46bd 7687 4cbd 5cec afbd
000001d0: 7b24 7abd 176c ffbb fc7a cbbc bb2f 1a3d
000001e0: c34e 45bc 5311 cabb 37b6 7f3c 6287 afbc
000001f0: 3946 843c 21b3 e7ba 10e8 d7bd 9a6b 0cbe
00000200: f398 a8bd f2b1 09be c4de aebd 9479 92bd
00000210: 9206 0bbe e632 03be 4c8e 38bc 3581 89bd
00000220: e0a8 5f3c 161f e4bb 9813 4f3d 1600 1fbd
00000230: 73ad 8fbc 79eb 4e3d c17e de3b 8c26 b53d
00000240: 5d56 e33c bc4e ffbc 574e 2bbd 1a27 773d
00000250: 8308 82bc 87d8 a8bc 1a72 ff3c 15d7 d6bc
00000260: fcf1 d7bc 79f2 17bd 0934 043d 18f6 8cbc
00000270: ff58 11bd 3586 833c b169 e7bc 10f9 5dba
00000280: 093b adbb c40b ff3c be81 3abd 69dd 84bc
00000290: ec0f b13c d872 4b3c 7a72 853a 39f3 083d
000002a0: d39f 69bd 5547 353d 5955 62bb 23f1 963c
000002b0: 2746 28bc c3db c5bc 75c0 3dbb 6443 13bd
000002c0: f9ff 12bd 2c47 c1bc 6c54 cf39 9a66 0abd
000002d0: 98b8 7abd 6112 42bd 884d 143d 57c2 45bd
000002e0: b522 863c 4077 1a3d 0329 7abd fc31 95bd
000002f0: 0e4c 163d 5f84 30bd b3e7 15bd d72d 923b
00000300: 8d19 e6bc b194 a33c 553e 893d 6eab 9dbc
00000310: f790 8b3c 33ec 653d 4ee8 87bd 7640 473d
00000320: 5f85 5a3b 0625 98bd 84e7 143d b33a 693d
00000330: a822 8abd aec5 a0bc 24ac 763d 086a 6c3d
00000340: f263 313d 1952 0cbd 4f2e ec3c 2ae8 fa39
00000350: 9f5f febc 1d11 973d 97e0 113d fdc0 9a3b
00000360: 9f82 2abc 2050 84bc ec96 83bc 256e 773d
00000370: 761d 563d 5226 b3bc 61a7 74bc 1589 783d
00000380: c6a2 c7bc 9a78 a9bd 2f22 3c3c e7b9 6f3d
00000390: 37fc 0fbb df1b 633d da6f c5bb da08 1fbd
000003a0: 41b9 543d 6b7b 013d 3c92 e73c e1ca b73c
000003b0: ca64 2ebd e270 863c 3e74 d1bc 7caf 3abd
000003c0: 4390 b93c f221 4d3c a76a de3c 1312 f7bb
000003d0: ac6b 153d fd2b a1bc 89e0 a4bc 8acc bdbc
000003e0: ad70 b2bc 4874 59bc a476 923c 78c1 15bb
000003f0: 2526 153d c914 403d 6888 f2bc 38e7 7e3d
-0.04437312 -0.02970517 0.015665554 -0.089268215 -0.0025564453 0.047427047 -0.071111456 -0.04207989
0.04944035 0.04109167 0.041363206 -0.011254753 0.004505053 -0.0114412 -0.0071441946 0.04525543
0.036858562 0.019749936 -0.018876556 0.018716352 -0.0034649912 0.0010060386 0.034877647 0.03069947
0.0014012584 0.01557213 -0.009239576 0.0438973 0.05020494 -6.693616e-05 0.06797809 0.049716223
-0.05124012 0.028135758 0.05786568 0.014982446 0.030653156 0.032346804 -0.029206723 -0.037791003
-0.0027952134 0.025501048 0.023351992 0.00076492253 -0.024490742 0.007121844 0.030320497 0.051434763
-0.023134094 -0.0033183016 0.073153034 -0.016585706 -0.017808994 0.023254367 0.038283337 0.05456683
-0.035787642 0.032575883 0.0544961 -0.03631894 0.04084167 0.005929962 -0.03281571 0.023705147
4.8362737e-05 -0.055028077 0.059295177 0.037666336 -0.05923939 0.062359974 0.031381395 -0.078850344
0.0053764335 0.010569908 0.007095914 0.017434591 -0.0032591016 -0.008428435 0.090655155 0.016642328
-0.021248115 0.03542186 0.03497614 -0.005077035 -0.018401304 0.08576312 0.03212519 -0.014039473
0.049319632 0.04750368 -0.0127753 -0.042118315 -0.085879944 0.080444835 0.021740913 -0.057987403
0.096841566 -0.0069015566 -0.08960322 0.0102639515 0.031647526 -0.037812684 0.017053096 0.013333457
0.030433726 0.016567785 0.059498403 -0.020557526 -0.058733325 -0.04275499 -0.05474526 -0.05589337
-0.08343331 -0.048515283 -0.049933873 -0.08590004 -0.061069947 -0.0077948677 -0.024838917 0.037643176
-0.012042704 -0.006166616 0.015607408 -0.02142686 0.016146766 -0.0017677286 -0.10542309 -0.13712922
-0.08232298 -0.13446787 -0.08538583 -0.071520954 -0.13576725 -0.12812385 -0.011264395 -0.067140974
0.013651103 -0.0069617135 0.050555795 -0.03881844 -0.017538762 0.050517533 0.0067900126 0.08845243
0.027751142 -0.031165473 -0.041822758 0.060340025 -0.0158732 -0.02061106 0.031182338 -0.026225606
-0.026360504 -0.037096474 0.032276187 -0.01720719 -0.035485264 0.016055206 -0.02824864 -0.0008467594
-0.0052865786 0.03113354 -0.045533888 -0.016218858 0.021614037 0.012417518 0.0010181211 0.03343508
-0.057037186 0.04425748 -0.0034535734 0.01842553 -0.010270632 -0.024152642 -0.0028953825 -0.03595294
-0.035888646 -0.023593508 0.00039545016 -0.033789255 -0.0612112 -0.04738081 0.036206752 -0.04828104
0.016373971 0.037711382 -0.061074268 -0.072849244 0.036693625 -0.04309499 -0.03659792 0.004461031
-0.028088355 0.019968363 0.06701342 -0.019246783 0.017036898 0.05613346 -0.066361055 0.04864546
0.0033343656 -0.07428937 0.036353603 0.056940746 -0.067448914 -0.019625511 0.06022276 0.057718307
0.043308206 -0.034257982 0.028830675 0.00047856692 -0.031051455 0.07376311 0.035614576 0.004722713
-0.010407119 -0.016151488 -0.016063176 0.060407776 0.05227419 -0.021868858 -0.014932484 0.060677607
-0.024369609 -0.08274956 0.011482759 0.0585269 -0.00219704 0.0554465 -0.0060252966 -0.0388268
0.051934484 0.03161184 0.028267972 0.022435607 -0.04257659 0.016411249 -0.025568124 -0.04557751
0.022651797 0.0125203 0.027150465 -0.0075399964 0.036479637 -0.019674296 -0.020126598 -0.02316882
-0.021782244 -0.0132723525 0.017878838 -0.0022850912 0.03641333 0.046894822 -0.02960606 0.062232226

conv4.bias f4 [64]
00000000: ef5a a4bc 19a6 3c3d 007b 913a 53cd 39bb
00000010: 633f 813c 760a ebbb 083e 663b ab18 0f3b
00000020: 8989 083d 3e4e 123d cd26 d73d 467a babb
00000030: 0a11 89bb ab41 18bc 8f14 7c3b 5a65 30bd
00000040: 56aa 33bd b902 723b 0f6d ce3d 48cb 093c
00000050: 15af b6bc 26a5 7f3d ca18 4cbd 4570 223d
00000060: eb2d 483c 4a50 02bd 4cb0 bfbc 04d3 1b3d
00000070: b47d 583a 09cb 203c d4ce 713b 489b 8a3c
00000080: 9e2f 4bbc a97c 3dbd 975e 0dbd c722 25bd
00000090: d197 963d 97d6 813d 8865 7fbd 6642 af3c
000000a0: 5463 433d aee7 4ebc 854d 4f3d a1cb 813c
000000b0: f444 49bd ff88 053d 17c8 89ba d470 01bd
000000c0: 648b 57bd 9dea 19bd 6c69 4a3d 569c 01bd
000000d0: c350 423d e1d1 f9ba 9ce6 753d 6748 093d
000000e0: 2097 523d 8f60 9fbc 6b2e 0fbd 9a38 66bc
000000f0: a72e 02bc cdff 02bd 384c b8bc 2605 bebc
-0.020062892 0.04605684 0.0011099279 -0.0028351143 0.015777295 -0.007172878 0.0035132188 0.0021834772
0.03333429 0.03571915 0.105054475 -0.0056908457 -0.0041829394 -0.009293 0.0038464402 -0.043065406
-0.043863617 0.0036927892 0.10079395 0.008410282 -0.022300282 0.062413357 -0.04982833 0.03965785
0.012217979 -0.03181485 -0.023399495 0.038043037 0.00082584773 0.009814032 0.003689696 0.016919747
-0.01240149 -0.046261463 -0.034514036 -0.04031637 0.073531754 0.06339758 -0.062352687 0.021393966
0.04770215 -0.012628479 0.050611038 0.015844168 -0.049138024 0.032601353 -0.0010511902 -0.031601742
-0.052623168 -0.03757726 0.049416944 -0.031643234 0.0474403 -0.0019059741 0.06003438 0.033516314
0.051413655 -0.019455222 -0.034956377 -0.014051581 -0.007945693 -0.031982232 -0.022497281 -0.023195814

fc1.weight f4 [256, 576]
00000000: 48cf abbc d137 9c3c 6038 c9bc 2c8f 80bc
00000010: 5337 f4bc 3385 013d 0b44 aa3c 61ce 3cbc
00000020: 8068 44bd 1b5e 30bd 62c6 683c 7dba 50bd
00000030: efdb b1bc db73 063b 44d8 f63c 82ea 023b
00000040: fecd 9b3c ce6c 0b3d 88a2 b83b a03e b93b
00000050: 3ca6 003c 8c68 0d3c 7a24 e13c 0059 fb3b
00000060: 5f72 14bd 69b4 273d 6c86 20bc cf83 16bd
00000070: ca01 fc3c cf15 16bd bd9f 263d 4090 d43b
00000080: 427d 863c 0069 283b 60de e6bb 21c5 1c3d
00000090: 8dd0 0c3d 3f29 0d3d 7a17 d03c 50cf 203c
000000a0: bc80 1cbc c02d 693b eb08 a6bc 4e81 a13c
000000b0: 90f3 9cbc c2ef c63c 1cbd 6fbc 8a83 17bd
000000c0: e291 f93c 005b 4e3c cca8 73bc 33bf d4bc
000000d0: a8c6 bcbc 80d9 c5b9 d01d 1c3c 5b4a 163d
000000e0: a839 f0bb a4c9 21bd 0010 eabc 66e2 dbbc
000000f0: d933 253d 5e3f e73c 30e8 41bb 7432 163c
00000100: d023 56bb 8adb 26bd ec55 063c 00ca c13b
00000110: 1016 89bc c311 26bd fcd9 1cbd 93c3 043d
00000120: 11fb 6fbc 889b e03b a27d 953c 1f3e 4dbc
00000130: 6aec 3fbd a9d5 cf3a 530c 93bc d7f4 3bbd
00000140: 1758 efbc fa3d bb3c 1446 f73c 86c5 9fbc
00000150: 45ee 11bd 3332 aebc c0be 373c 8cc1 203c
00000160: 4eb6 eebc 92e4 a63b 55e0 963c 1736 1abd
00000170: 5acf 843b 52a1 d43c 9489 d4ba f385 df3c
00000180: 238d 1cbd ce44 1fbc c42f 74bc 9b9a afbc
00000190: 920b db3c d616 f23c 762c 33bc 4ca8 54bc
000001a0: 3070 723c e343 273d e471 07bc 682a 08bd
000001b0: 501d 22bc 7450 23bc cb85 cebc 40a7 3b3b
000001c0: dc3e 023c a0c7 1cbd ca26 0bbd b826 cd3b
000001d0: ef3e 273d 6849 29bd 4057 893b f73f 0e3d
000001e0: 4f0e 143d 9c7f 03bd 8606 fd3c c017 1c3a
000001f0: 3b00 8bbc 8bd5 0a3d 0a11 d83c 78e0 babb
00000200: 5097 e7bc c2f9 c13c 9c04 7f3c b724 013d
00000210: 00a6 b5bc c2e5 853c 00bf 4eb9 f383 08bd
00000220: ba38 9a3c 6b49 03bd 14c5 0fbc 4977 1a3d
00000230: 10ad 783c b7ff 213d 1856 a4bc f278 f13c
00000240: 732a c7bc a802 fc3b 36bf c1bc ad57 033d
00000250: cad6 d53c e697 33bc 00c1 1b3a 98ba aabc
00000260: da03 ee3c 40d4 b5bb bace da3c 902e 15bb
00000270: 3073 623b 84c2 0fbd b5da 253d ccf0 0cbd
00000280: 00e3 9b3b 14ee 5a3c d053 b9bc 251e 033d
00000290: da09 05bd 1b17 92bc 801b 1bbb 69b0 153d
000002a0: dff0 25bd bb3d edbc 2b3b 97bc a924 a8bc
000002b0: 7418 c5bc 28e6 edbc e897 2e3c 93d2 db3c
000002c0: 385b dfbc f3d4 e8bc 837f a73c f7e8 d6bb
000002d0: b865 9e3b 2e80 9e3c b85f 9f3b 287a 0ebd
000002e0: 764a 3fbc 4620 80bc 4f29 08bd c623 c9bc
000002f0: 58fb f63b ea83 31bd 8b52 813c b27e 0fbd
00000300: 4986 743b fcb3 f53c 581b c0bc 45b6 e4bc
00000310: 08af 96bc d4f6 22bd e416 733c 3ed3 d33c
00000320: 2503 0e3d 328f c23c c329 b1bc 884e d6bc
00000330: af69 21bd f0a2 2a3b 204b b23b 9ad5 c2bc
00000340: d1d9 12bd a384 5f3b 7fa1 c63c 723d 2abd
00000350: b1aa bfbb 30cc 9a3c beaa 45bd cbff 943c
00000360: 0702 2ebd e0d1 a2ba 767d 043c 505c f5bc
00000370: a05d 57bc c5ee be3c 9d34 49bd f9df 013c
00000380: c24b b73c 1ec9 09bd 00f6 a43c 2369 d3bc
00000390: 3b46 1abd f690 883c 68b9 d4bb 27b6 17bd
000003a0: fd1a 083d 3cf2 16bc 1c25 313b 542f 23bc
000003b0: a857 8d3b 62fd e73c 423e 84bc 240e 13bb
000003c0: c81e d63b e157 35bd a630 b1bc 185d 16bc
000003d0: dff8 1ebd a5a5 79ba 0589 48bb f2a7 f13c
000003e0: 75dd 00bd af9a 39bc 58ac d73b 7241 b6bc
000003f0: e004 dcba c8cc 89bb d2eb 9d3c 64ed 0e3c
-0.020972863 0.019069584 -0.024563015 -0.01569327 -0.029811537 0.03162117 0.020784399 -0.011523814
-0.04795122 -0.043058496 0.014207454 -0.0509591 -0.021711318 0.0020515833 0.03013242 0.0019976203
0.019019123 0.03403931 0.0056346096 0.0056532174 0.007852133 0.008630883 0.027483214 0.0076705217
-0.036241885 0.040943537 -0.009797674 -0.036746796 0.030762572 -0.036641892 0.040679682 0.0064869225
0.01641715 0.002569735 -0.007045552 0.038273934 0.034378577 0.034463163 0.02540182 0.009815052
-0.009552177 0.0035580248 -0.020267924 0.019714978 -0.019159108 0.024284247 -0.0146324895 -0.03699068
0.03046507 0.012594938 -0.014871787 -0.025970077 -0.023043945 -0.00037736818 0.009528592 0.036692005
-0.007331092 -0.03949894 -0.028572083 -0.026841354 0.04033265 0.028228458 -0.0029587857 0.009167302
-0.0032675155 -0.040736713 0.008199196 0.005913973 -0.016734153 -0.040544283 -0.038293824 0.032413077
-0.014647261 0.0068544783 0.018248383 -0.012527018 -0.04685632 0.0015856522 -0.017950213 -0.045887794
-0.02921681 0.022856701 0.030184783 -0.019503366 -0.035627622 -0.021264171 0.011214912 0.00981177
-0.029139664 0.0050931657 0.018417517 -0.03764924 0.0040530385 0.02595583 -0.0016215318 0.027285552
-0.038220536 -0.009720994 -0.014903966 -0.021436026 0.026738916 0.029551905 -0.010935893 -0.012979578
0.014797255 0.040836226 -0.0082669 -0.033243567 -0.009894684 -0.009967912 -0.025210282 0.0028633624
0.007949557 -0.038276315 -0.03397254 0.006260719 0.040831503 -0.04132977 0.004191309 0.03472897
0.03614646 -0.03210412 0.0308869 0.0005954467 -0.016967883 0.033895057 0.026375312 -0.0057030283
-0.028270394 0.023678664 0.015565064 0.031529155 -0.022173882 0.016344909 -0.00019716844 -0.03332896
0.018825877 -0.03205244 -0.008775014 0.037711415 0.01517798 0.03955051 -0.020060584 0.029476617
-0.024312234 0.0076907463 -0.023650747 0.032066036 0.026103396 -0.010961508 0.000594154 -0.020840928
0.029054571 -0.005548984 0.026709903 -0.002276335 0.003455352 -0.035097614 0.04049178 -0.03440933
0.004757285 0.013362426 -0.022622973 0.03201117 -0.0324801 -0.017833283 -0.0023667514 0.03654519
-0.040512916 -0.0289601 -0.01846083 -0.020525293 -0.024059512 -0.029040411 0.010656334 0.026833808
-0.027265176 -0.028421855 0.020446545 -0.0065585333 0.004833903 0.01934823 0.0048637055 -0.034784466
-0.011675468 -0.01564039 -0.03324252 -0.02455319 0.0075372867 -0.043338694 0.01578643 -0.035032935
0.0037311486 0.02999305 -0.023450539 -0.027918944 -0.018394008 -0.039786175 0.0148370005 0.025857564
0.034670968 0.023749921 -0.021626359 -0.026160493 -0.03940743 0.002603706 0.0054410845 -0.023783494
-0.035852257 0.0034106157 0.02424693 -0.041562505 -0.0058492054 0.018896192 -0.048258536 0.018188378
-0.042482402 -0.0012422167 0.008086553 -0.029951245 -0.0131448805 0.023307214 -0.04912244 0.007926934
0.022374991 -0.033639066 0.020136833 -0.025806969 -0.037664633 0.016670685 -0.0064918287 -0.03703895
0.033228863 -0.009213027 0.0027030176 -0.009960014 0.004313428 0.028319065 -0.016142968 -0.0022438848
0.006534431 -0.04427326 -0.021629643 -0.009177469 -0.03881156 -0.0009523279 -0.0030599248 0.029499028
-0.031461198 -0.011328383 0.0065818243 -0.022248004 -0.0016786121 -0.00420532 0.019277487 0.0087235905

fc1.bias f4 [256]
00000000: 36e2 10bd e86a 12bb 01cf 623c f91a 6e36
00000010: 9ab0 2ebd 7f81 e2ba 52f7 363c 8913 1f3d
00000020: ce7f 003d 7b77 0cbd d1ea eebc df99 923d
00000030: ccfc b1bb c184 373d 8838 2cbd 1317 d23c
00000040: d66a 0a3d 5260 f4b8 6d1c 2bbd 4681 16bc
00000050: e424 8cbb ee7f 713d d4db 09bc f62f 66bd
00000060: 423e 2bbd 3b86 dc3d 395f 803c c5a3 06bd
00000070: 9fa1 c23c 80f2 3bbc a4de 0d3d 44f3 17bc
00000080: d65d 7c3d 59ba 29bd fef7 a53c 7086 e5bb
00000090: 9c8c ecbc 02e2 3d3c f8f8 56bb 99f9 8d3d
000000a0: 9814 213d 4574 8dbc ff70 00bc 2541 913d
000000b0: ce2c 80bb 1c7a b13c 3192 c73b eea3 ea3c
000000c0: 97c9 e43c 055a 98bd e4b7 9e3d e265 903d
000000d0: 4f85 2c3d 575e 8fbc 63a2 d03d 6667 0c3d
000000e0: 4c66 163d c981 47bc 80f5 f8bc c726 23bd
000000f0: 60ab b5bc 955f 17bd 491a 8ebc 6275 ee3c
00000100: d53c 853c 6228 04bd e7b0 f23c 71ba d73c
00000110: 512c 873b 82e6 a73b 0073 0ebd 8e29 783d
00000120: 677c 26bc 22f0 02bd 291f 203d e6aa ee3c
00000130: b4e2 00bc a420 023d 3e9c 823d 2981 48bc
00000140: db1f 713d 1f0d 1ebd 839e 96bc 7efc d43c
00000150: 245a b53c aa8f 96bb d0a7 3cbb 2970 7f3d
00000160: dee3 253b ed05 063d d465 b23d 1516 133d
00000170: 2fa8 7ebc 838d 2fbd c2a7 e03c efe2 533c
00000180: 3187 32bd 1cf7 15bb 1988 1d3d 3986 9ebc
00000190: 6263 28bd 3eb4 0bbd 5cac 13bd cb0b 92bd
000001a0: 39f8 14bd b02c b33b 6912 a6b9 0bab c9bc
000001b0: d438 e4bc aac0 673d 1313 87bc f846 973b
000001c0: 21e9 8abd fffe 26bc 3309 7fbc 127a 1dbd
000001d0: f8e3 d23c 2682 0ebd ae6a 2dbd 024a 273d
000001e0: c71c 65bd a00e 4dbd f47e d53c 9a8a 10bd
000001f0: 16fe 833c 6903 0ebd 27bc 933b 4e8d 17bd
00000200: d236 39bd a124 173c 8e2b 203d 8f48 02bc
00000210: 09bb a33c 7b3f 303d e1f3 c33c 0819 68bd
00000220: dc73 a53c 675c 873d d875 e93c 325b cbbc
00000230: 0cf3 a33c 79bc 86bc 532c 283a 1130 1f3c
00000240: a260 2a3d 10fe b63d 6cb2 9d3c e721 4cbd
00000250: c19d 593c 1b57 4f3c 25bc adbb 5d1c 21bd
00000260: 3298 4f3d a160 583d ef70 473a 88bc dcbc
00000270: 4568 54bd cf51 4bbc a04f 86bc d445 d5bc
00000280: 4b67 10bd 5a61 df3c f191 3cbd 6ecc 883c
00000290: 99cb a43c ce66 5a3c a2bd 9d3c 079d 1cbd
000002a0: 9237 813d c196 2abc 927e 2ebd 1fca d43c
000002b0: 9c1c 623c 0d9a 41bd 3599 5abb 48a0 17bd
000002c0: ed4f 3cbd e91f 763c d47a 273d 31ce 91bc
000002d0: fbcb 39bd 9767 cabc 9b3a b33b f224 0cbd
000002e0: e665 ebbc e858 29bd edf8 eabb adf7 14bd
000002f0: b3e7 943c bcca 893d 744b 40bd e3f3 c2bc
00000300: ef17 4cbc 3c22 c93c 28f4 0abd eed8 00bd
00000310: 0e22 0bbd a9d2 3fbd 0180 d5bc ed87 43bc
00000320: f6bb 23bd 2654 25bc 6a01 383d aa11 363d
00000330: aa7e 64bc a96b 783c 06cc 62bd d8b7 af3c
00000340: 032b 49bd 94aa 793d 9917 9d3c db04 793d
00000350: aba6 ad3d ee68 acbb d3d3 d23c 572f ac3c
00000360: 6843 5bbd 8d4a a93c 2043 02bd 6ebf 063d
00000370: b122 993d 24a9 393d 1b76 e63c 78b3 063d
00000380: 8ef1 a43c fd6f 263d 8d8e 62bb ff93 333c
00000390: 2ea0 a43c 9886 973d 5058 e43c 10c8 913c
000003a0: b6c2 4a3c 6e12 38bd 8da8 f2bb f51f 593d
000003b0: 756c afbc 09e1 543c 8fca 523c a1cf a63c
000003c0: 93a8 953c 8e0e 143d fa71 5ebc 283f 3ebd
000003d0: 68dd c4bc b3e8 bbbc 4ee9 2cbd 4b8a 89bd
000003e0: 3887 8c3c 3e71 fe3b 7be5 94bc 8032 62bc
000003f0: 18a7 733c ee20 83ba 0bbc f5bb de7f 173c
-0.03537198 -0.0022341553 0.013843299 3.5480464e-06 -0.04264889 -0.0017281024 0.011167364 0.03883699
0.031371884 -0.034293633 -0.029164704 0.07158255 -0.005431747 0.04480434 -0.0420461 0.025645768
0.033793293 -0.00011652768 -0.041775156 -0.009186095 -0.0042768586 0.058959894 -0.0084142275 -0.056198083
-0.04180742 0.1076779 0.015670406 -0.032871027 0.023758708 -0.011471391 0.034636155 -0.009274308
0.061612926 -0.04143748 0.020259853 -0.0070045516 -0.028875642 0.011589529 -0.0032802206 0.069323726
0.03932628 -0.017267356 -0.00783944 0.070925035 -0.003911591 0.021664672 0.0060904254 0.02864262
0.027928157 -0.07439045 0.07749918 0.070506826 0.04211932 -0.01750104 0.10187223 0.034278296
0.03671865 -0.012176939 -0.030390501 -0.039831903 -0.022176445 -0.03695639 -0.017346518 0.029108707
0.016264359 -0.032265075 0.02962537 0.02633402 0.004125156 0.005123914 -0.03477764 0.060586505
-0.010161496 -0.03196729 0.039092217 0.029134225 -0.00786655 0.03176941 0.06377457 -0.012237825
0.05886827 -0.038586732 -0.018386131 0.025999304 0.022137709 -0.004594763 -0.0028786547 0.062362824
0.0025312821 0.032720495 0.087108284 0.03590973 -0.015543028 -0.042859565 0.027423743 0.012932523
-0.04358596 -0.0022882884 0.03845987 -0.019351112 -0.041110404 -0.03410744 -0.036053047 -0.071311556
-0.036369536 0.0054679736 -0.00031675704 -0.024617692 -0.027859129 0.056580223 -0.016488587 0.0046166144
-0.06782747 -0.010192632 -0.015566158 -0.038446493 0.02574347 -0.034792088 -0.042338066 0.040842064
-0.055935647 -0.050062776 0.026061513 -0.03528843 0.016112369 -0.03467122 0.0045085135 -0.036999993
-0.045218296 0.009225042 0.039104037 -0.00795187 0.019986646 0.04302929 0.023920001 -0.056664497
0.020196848 0.06609421 0.028498575 -0.024823759 0.020013355 -0.016447293 0.0006415296 0.00971605
0.041596062 0.08935177 0.019250117 -0.04983702 0.01328224 0.012655045 -0.0053019696 -0.03933369
0.050682254 0.052826528 0.0007608076 -0.026945367 -0.05185725 -0.012409641 -0.01639539 -0.026034273
-0.035254758 0.0272681 -0.046037618 0.016699042 0.020116614 0.013330175 0.019255463 -0.03823569
0.06309427 -0.010411919 -0.042601176 0.025975285 0.013800766 -0.047266055 -0.0033355479 -0.03701809
-0.04597466 0.015022256 0.040888622 -0.017798515 -0.045360547 -0.024707599 0.005469633 -0.03421492
-0.028735112 -0.041344553 -0.0071707875 -0.036369015 0.018176889 0.06728122 -0.046946958 -0.023797935
-0.012456878 0.024552457 -0.03392425 -0.03145688 -0.033968024 -0.04683176 -0.026062014 -0.011934263
-0.039974175 -0.010090863 0.044923224 0.04445044 -0.013946215 0.015162387 -0.055370353 0.021449968
-0.049113285 0.06095369 0.019176291 0.060795646 0.08479055 -0.005261532 0.025735771 0.021018667
-0.05353108 0.020665431 -0.031802297 0.032897405 0.0747732 0.04532732 0.028132489 0.032886
0.020134714 0.040634144 -0.003456983 0.010960578 0.02009591 0.073987186 0.027874142 0.017795593
0.012375524 -0.04493945 -0.0074053467 0.053008992 -0.021414021 0.012993106 0.012865677 0.020362677
0.018268859 0.036146693 -0.013576979 -0.04644695 -0.024031356 -0.022938108 -0.042214684 -0.067158304
0.017154321 0.0077649644 -0.018175831 -0.013805985 0.014871381 -0.0010004321 -0.007499223 0.0092467945

fc2.weight f4 [4, 256]
00000000: 4dcf 81bd 50b2 0dbd 8821 b3bc b528 49bc
00000010: 794c 16bc 05c7 20be 3367 f23b 712f d4bd
00000020: ceca 333d bebc 45bd 529c 4dbd 3452 c4bd
00000030: f112 b53c 6cb2 e63c 1c44 6fbc 9f4d 20bd
00000040: 5d2f e2bd d616 dbbd 960b 9f3d da82 893d
00000050: 0924 9a3d d596 09bd 8946 b83c 16ae aabc
00000060: f2c7 e63d 2559 2fbd 90c2 e7bc 2ea3 adbc
00000070: 62fa 86bd aa57 023d 465c a0bd 8980 a939
00000080: 8c15 c2bd a6c1 a3ba 68af 903d f898 693d
00000090: 6233 513d 5fbc db3b 193c c8bd d22e 82be
000000a0: 4c7f d8bd 241c 62bc 5972 833d f201 d63c
000000b0: ec95 863d 30bd 0b3d 0466 a53d 558b 94bd
000000c0: 42b0 4dbd 9918 5f3d 38da 8cbd 90b8 a0bd
000000d0: 653b 9abd 59b6 8d3c ac86 acbd ec0f 893d
000000e0: e361 333d 2bc7 a13b 415a 43bd b094 813c
000000f0: a4d6 74bd ac92 b8bc d19d 4eba a1ff 6ebd
00000100: ec8e 3f3b 9552 8d3c 8ecf 79bd 0849 e5bd
00000110: 3abc 27bd 2f1b c53c 5f7a 72bd 3c25 b3bd
00000120: 3adc db3c 8d9d 53bd dcb1 6ebc 5c1a 883d
00000130: 7d11 493d 1388 85bd 3f5c b9bd 5214 4cbd
00000140: b2e0 efbd 21b9 fe3c d210 b3bd 8da7 f6bd
00000150: dd23 943c b71a 683b 693c 883c 145e b9bd
00000160: ce5d 803d 2c52 b73c 34d2 06be ec51 a1bd
00000170: d0a8 633c 4171 953d aad8 6fbc b89c 2fbd
00000180: 7c83 ca3a c8cb 9a3d d899 1c3d ef76 013d
00000190: b651 d73c 982f 213d 8cb4 b8bd 5438 4abd
000001a0: 437f d93a 7b95 8e3d 5740 203d 529f 903d
000001b0: aa54 d7bb 722b 633d 6406 7bbb 93d4 babb
000001c0: 9d49 37bd 4239 61bd bd26 2e3d f8c9 f4bc
000001d0: f649 243d 5560 9f3d c736 a33d 2463 e23c
000001e0: 8e5d 69bd 5037 5f3c 93d7 d6bb 6df6 473d
000001f0: 1ef6 7e3d e4f1 6e3d 44ad 533d f13a 723c
00000200: 136f 5ebd 94c5 3ebc f31a d4bd 225e 8a3d
00000210: 5b53 f2bc 571b e5bd 9a1f da3c c317 c4bc
00000220: a6b6 413d 2076 95bd ca94 bb3c 9096 f3bc
00000230: 9d36 dfbc 3cd1 f93c ea4a 803d 573b 7a3c
00000240: 5a26 713d c9cc ffbc c2be 103d 9101 73bd
00000250: b5cb 133d 8615 a13d 0a13 92bd 3201 573d
00000260: b445 f2bd e047 97bd d60e 3b3d 23e9 a8bc
00000270: 4cc1 a0bc 46b6 723b 7918 ec3c 3abf 32bd
00000280: f6ad bdbd d517 17bd 9314 85bd 908b 863c
00000290: 2b5a a43d 823a 773d 7f1d 0b3d bccc 6abc
000002a0: bf6e 8ebd eef0 493d ddc8 8f3d 76e7 233d
000002b0: 43aa 9c3d 9cfd 9b3c bd3d 293d cbb5 e7bd
000002c0: 10dc 763b 004f b3bd 55d8 ad3c 0000 26bb
000002d0: 1961 8abc 96df 423d 582f 8dbd 0f89 1d3d
000002e0: 7dbd e7bd 26bf 39bd f90e fabb 80fa a93c
000002f0: a17f 3e3d 4396 a2bd 1714 d03b 7acb a53c
00000300: f1a8 76bc 4ffd 3f3d 2146 1bbd 7c9c 22bd
00000310: ec47 01bd 67fd e8bc 9993 f0bc 1f39 203d
00000320: c8bc a3bc 51c5 c2bc 5e20 6abc 2c0e eabd
00000330: a09d a6bc c788 363d fad3 25bc a3d3 013d
00000340: ec35 5bbd f5d3 d0bd 3a62 4fbd 2f82 febd
00000350: dc26 d8bd 2d1e 303d b30e 893b f83d bdbd
00000360: d25f 153d 7ae8 a03a 8811 00bd 6517 2abd
00000370: 32bc 8dbd 9d48 05bd 33d5 95bd 356f 81bd
00000380: 563c b9bc 9795 113d e5be 30bc 5314 d1bc
00000390: dc0c 8f3c 1dca d8bd 777d 5a3d f2b1 873d
000003a0: 554b 9e3c 5090 45bd 5cf9 a4bc c94f ecbd
000003b0: ae91 01bd f4ff 68bc b52d 8c3d 05c9 26bb
000003c0: 3fa4 0dbd 50eb babd 85fb c0bc 4b0f a8bc
000003d0: bfc2 873d 6008 573d 7637 33bd 6763 9cbc
000003e0: 96d2 3cbd aef5 9ebc d538 d43c fb05 6dbd
000003f0: c9f7 113d 4de0 c23c 2219 a4bc 2964 82bd
-0.063383676 -0.03459388 -0.021866575 -0.012277772 -0.009173506 -0.1570092 0.007397556 -0.10360611
0.04389458 -0.0482757 -0.050197907 -0.095859915 0.022103759 0.02816125 -0.014603641 -0.039136525
-0.1104419 -0.10697715 0.07765882 0.06714411 0.075264044 -0.03359111 0.022494571 -0.020834964
0.11268605 -0.042809624 -0.028291017 -0.021195974 -0.065907255 0.031821884 -0.078301 0.00032329958
-0.09476766 -0.0012493625 0.07064706 0.057030648 0.051074393 0.006705805 -0.09777088 -0.25426346
-0.10571155 -0.013800655 0.064182945 0.026123974 0.06571564 0.03411597 0.080760986 -0.07253138
-0.05021692 0.054466818 -0.068775594 -0.078477025 -0.0753086 0.017298864 -0.08424124 0.0669249
0.043794524 0.0049370728 -0.047693495 0.01581797 -0.05977501 -0.022530876 -0.0007881793 -0.058349255
0.0029229475 0.017251292 -0.060988955 -0.1119557 -0.04095099 0.024060814 -0.059198733 -0.08747336
0.02683841 -0.051663924 -0.014568772 0.06645653 0.049088944 -0.06520095 -0.09050798 -0.049824066
-0.11712779 0.031094136 -0.087434426 -0.120436765 0.018083507 0.0035416314 0.016630368 -0.09051147
0.06267892 0.02237805 -0.13166124 -0.078769535 0.0138952285 0.07296992 -0.014639059 -0.042874068
0.0015450562 0.075583994 0.038232654 0.031607565 0.02628408 0.03935203 -0.090188116 -0.049370125
0.0016593713 0.06962105 0.03912386 0.07061638 -0.006571372 0.055461355 -0.003830337 -0.0057016104
-0.044747937 -0.054986246 0.042517412 -0.029881462 0.040109597 0.07782046 0.07969432 0.027635165
-0.056973986 0.013624027 -0.00655646 0.048818994 0.062246434 0.058336154 0.05167891 0.014784561
-0.054305147 -0.011643786 -0.10356703 0.06756236 -0.029580763 -0.11186855 0.026626397 -0.023937112
0.047293328 -0.07297921 0.022898097 -0.02973488 -0.027247721 0.030495279 0.06264289 0.015272937
0.058874466 -0.031225579 0.03533817 -0.059327666 0.036082942 0.078654334 -0.07132538 0.052491374
-0.11829701 -0.07386756 0.045668446 -0.02061898 -0.019623421 0.0037034913 0.028820263 -0.0436394
-0.09261696 -0.036887962 -0.06498065 0.01642397 0.08025011 0.06035853 0.033963677 -0.014331039
-0.06954717 0.049302034 0.070207335 0.04001566 0.07649662 0.019041829 0.041318644 -0.11313971
0.0037667789 -0.087553024 0.02122132 -0.002532959 -0.016892003 0.04757651 -0.06893796 0.038460787
-0.11315439 -0.04534831 -0.0076311794 0.02074933 0.046508435 -0.079388164 0.006350051 0.020238627
-0.015054927 0.046872433 -0.037908677 -0.039700016 -0.03156273 -0.028441144 -0.029367255 0.039116975
-0.019987479 -0.023775728 -0.0142899435 -0.11428484 -0.020338833 0.044564035 -0.01012134 0.031695973
-0.05351822 -0.101966776 -0.050630786 -0.12427174 -0.10554287 0.042997528 0.0041826605 -0.09240335
0.036468334 0.0012276315 -0.03126672 -0.041526217 -0.06920661 -0.032539953 -0.07316055 -0.06320039
-0.022611778 0.03554305 -0.0107877 -0.025522387 0.017462187 -0.10585425 0.05334231 0.06625737
0.01932303 -0.04823333 -0.020138435 -0.11538655 -0.03163307 -0.01422118 0.068446554 -0.0025449407
-0.034580465 -0.091269135 -0.023557434 -0.020515105 0.06628942 0.05249822 -0.043754064 -0.019090367
-0.046099268 -0.019404259 0.025906006 -0.05786703 0.035636697 0.023788596 -0.020031516 -0.0636676

fc2.bias f4 [4]
00000000: 93f0 58bd 65cf 8d3d f3b4 2dbd 3b39 03bd
-0.052963804 0.06924323 -0.042408895 -0.032037
