ndbb_models/traffic_sign_classifier.pt (torch, 955655 bytes, 12 tensors)

conv_block.0.weight f4 [32, 3, 5, 5]
0.019965852 -0.14138007 -0.1370313 -0.18146853 0.005800795 0.07498382 -0.16347185 -0.13470837
-0.16094781 0.043211155 -0.036781248 -0.041524895 -0.1590882 0.0873742 -0.027530026 0.071574
-0.13411546 -0.15321808 0.089684434 0.0024713634 -0.036323287 -0.21407665 -0.2135347 -0.129816
0.0698173 0.07587458 -0.09554481 -0.07485132 0.001196914 0.061522286 0.02337736 -0.14343883
-0.07491875 0.062785886 -0.08713905 -0.01986532 0.035997823 0.09757402 0.14502512 0.023696344
-0.10976127 -0.12403456 -0.14588633 -9.141007e-05 0.14402781 -0.025886003 -0.15210898 -0.09784501
-0.103257716 -0.006065413 0.0839843 0.09886652 0.03531488 -0.07689457 0.027121918 0.18958677
-0.06388025 0.015901396 0.03956656 0.0320572 0.1183847 0.044407036 0.07740207 0.09979889
0.10403406 0.14498182 0.12570761 0.14504161 0.08674929 0.08616621 0.123446874 -0.03449835
0.07663824 0.041899566 -0.06623939 -0.07539108 0.14418149 -0.014043232 -0.09368391 0.047675285
0.1116796 0.19376169 0.13972823 0.03669867 -0.12954776 0.13796881 0.17488633 -0.042171177
-0.12520526 -0.115459755 0.098541304 0.13830264 -0.044091083 -0.13775773 -0.10410983 0.022100652
0.17156853 -0.032344557 0.034397777 0.0059240432 0.1909543 0.07169356 0.049694147 0.049773645
-0.100040324 0.11318639 0.0802378 0.18338585 -0.034243025 -0.020022359 0.086792395 0.249868
-0.118816644 -0.2904725 -0.2890422 0.21214956 0.10854747 -0.14831668 -0.36225173 -0.33919457
0.16972487 0.135335 -0.058896095 -0.2616931 -0.21256483 -0.04348798 0.2195759 0.06653889
0.11065618 0.060100313 0.060030207 0.03780344 0.18716155 -0.06531758 0.032145917 0.1605337
0.060861498 -0.021171592 -0.19718857 -0.17008166 -0.05514198 0.16600694 -0.15338975 -0.11129645
-0.136109 0.100939475 -0.06627473 -0.10784789 -0.07460312 -0.15785573 0.009871661 -0.08702511
-0.039925028 0.06615618 0.03614494 0.04007439 -0.032136682 0.10014517 -0.025334712 -0.050230697
-0.075485885 -0.07451805 -0.029032324 -0.093851455 -0.098062016 0.047350213 0.017107937 0.010541928
0.061789367 0.032969493 -0.054584887 0.06936813 -0.004484805 0.019393103 -0.09346245 -0.05729997
-0.0017432 -0.11188781 -0.074030235 -0.080536775 -0.071906805 0.08488087 -0.014879334 -0.09567504
0.021532344 0.017552553 0.054126732 -0.033309486 -0.036200676 -0.11491356 0.016296046 -0.029811928
-0.03207048 -0.012442243 0.08193028 0.018459732 -0.028250035 0.0741924 0.05509624 -0.06409123
0.06674501 0.072295256 -0.0054209977 0.052809596 0.06852442 0.03931128 0.0496045 -0.05628857
-0.08098582 0.035704512 -0.0061987196 0.049179062 -0.034498822 0.04620698 0.0247952 0.008354498
-0.02058774 0.05715338 -0.091837384 -0.041092638 -0.07115678 -0.03655948 -0.07568383 -0.09677322
0.01389126 0.0675764 -0.14146017 -0.06147538 -0.17363507 -0.118047774 -0.09042061 -0.002495679
-0.009635808 0.054593317 -0.01211958 0.0058431397 0.08141498 -0.11537299 -0.088330194 -0.21645544
0.11819416 -0.04644369 -0.13033476 -0.19441228 -0.2142881 0.112290345 0.081980914 -0.059532035
-0.19737516 -0.1550347 -0.046188276 -0.016772933 0.055628076 -0.15985756 -0.01613837 0.10552872
00000000: 6d8f a33c f0c5 10be ef51 0cbe e3d2 39be
00000010: 9814 be3b 1e91 993d 2a65 27be fef0 09be
00000020: 81cf 24be 2efe 303d efa7 16bd 0216 2abd
00000030: 04e8 22be 3ff1 b23d a686 e1bc 6495 923d
00000040: 9055 09be 33e5 1cbe 79ac b73d 99f6 213b
00000050: bac7 14bd e936 5bbe d7a8 5abe 7cee 04be
00000060: 5ffc 8e3d 2264 9b3d ffac c3bd a64b 99bd
00000070: c5e1 9c3a cbfe 7b3d e181 bf3c a1e1 12be
00000080: 006f 99bd e395 803d f575 b2bd 98bc a2bc
00000090: 7472 133d e3d4 c73d 7781 143e d61e c23c
000000a0: 84ca e0bd d505 febd 3a63 15be 68b3 bfb8
000000b0: 077c 133e e20e d4bc 75c2 1bbe f762 c8bd
000000c0: c878 d3bd 5fc0 c6bb f6ff ab3d 887a ca3d
000000d0: 56a6 103d e67a 9dbd c92e de3c 0923 423e
000000e0: a6d3 82bd a543 823c 8c10 223d 694e 033d
000000f0: ad73 f23d 27e4 353d fa84 9e3d 5c63 cc3d
00000100: cf0f d53d 1d76 143e 7fb9 003e ca85 143e
00000110: 9da9 b13d e977 b03d b7d1 fc3d 244e 0dbd
00000120: 82f4 9c3d e19e 2b3d 84a8 87bd a366 9abd
00000130: 50a4 133e 9615 66bc 5add bfbd 2947 433d
00000140: 46b8 e43d 7769 463e eb14 0f3e 5851 163d
00000150: 2ba8 04be b247 0d3e 6715 333e afbb 2cbd
00000160: cf35 00be 2a76 ecbd 06d0 c93d 359f 0d3e
00000170: da98 34bd 5d10 0dbe 8937 d5bd 6d0c b53c
00000180: a9af 2f3e ba7b 04bd afe4 0c3d 7a1e c23b
00000190: 8689 433e 13d4 923d 178c 4b3d 73df 4b3d
000001a0: f1e1 ccbd 44ce e73d b753 a43d 80c9 3b3e
000001b0: 6a42 0cbd ee05 a4bc 36c0 b13d 66dd 7f3e
000001c0: 2456 f3bd d0b8 94be 57fd 93be bc3d 593e
000001d0: 234e de3d 54e0 17be 0f79 b9be e9aa adbe
000001e0: 5bcc 2d3e 4295 0a3e 083d 71bd a3fc 85be
000001f0: 98aa 59be 7420 32bd 81d8 603e 8b45 883d
00000200: b59f e23d bf2b 763d 3ce2 753d c8d7 1a3d
00000210: 47a7 3f3e 39c5 85bd 70ab 033d f262 243e
00000220: e849 793d 0c70 adbc cdeb 49be e329 2ebe
00000230: 8fdc 61bd b9fd 293e 3412 1dbe 65ef e3bd
00000240: 2860 0bbe 5bb9 ce3d 0cbb 87bd 5bdf dcbd
00000250: 85c9 98bd efa4 21be bfbc 213c 393a b2bd
00000260: 6d88 23bd e47c 873d b70c 143d 0b25 243d
00000270: c1a1 03bd e918 cd3d be8a cfbc b4be 4dbd
00000280: 5898 9abd eb9c 98bd 32d5 edbc 3135 c0bd
00000290: bdd4 c8bd 4cf2 413d f225 8c3c 0db8 2c3c
000002a0: d916 7d3d 050b 073d 6794 5fbd e110 8e3d
000002b0: 45f5 92bb 49de 9e3c 3e69 bfbd 60b3 6abd
000002c0: 167c e4ba 7025 e5bd 2a9d 97bd 77f0 a4bd
000002d0: e043 93bd 06d6 ad3d 73c8 73bc 46f1 c3bd
000002e0: 9964 b03c 5fca 8f3c feb3 5d3d 876f 08bd
000002f0: 2947 14bd cd57 ebbd 497f 853c 2538 f4bc
00000300: 565c 03bd 8dda 4bbc 10cb a73d dd38 973c
00000310: 9e6c e7bc 2ff2 973d 98ac 613d 4342 83bd
00000320: 9cb1 883d 890f 943d a0a2 b1bb e04e 583d
00000330: 8856 8c3d dd04 213d 172e 4b3d d88e 66bd
00000340: e5db a5bd e53e 123d a11e cbbb fc6f 493d
00000350: a34e 0dbd 8843 3d3d 4e1f cb3c 4ee1 083c
00000360: 9fa7 a8bc aa19 6a3d 3d15 bcbd c150 28bd
00000370: a5ba 91bd 65bf 15bd 2000 9bbd 0a31 c6bd
00000380: 2b98 633c 7f65 8a3d efda 10be 9ccd 7bbd
00000390: 64cd 31be 08c3 f1bd 712e b9bd 8c8e 23bb
000003a0: 82df 1dbc 3e9d 5f3d 3491 46bc cf77 bf3b
000003b0: e6bc a63d ad48 ecbd 76e6 b4bd 7fa6 5dbe
000003c0: c80f f23d bd3b 3ebd 7a76 05be 0314 47be
000003d0: 576e 5bbe 7bf8 e53d 9ce5 a73d ddd7 73bd
000003e0: b71c 4abe 6bc1 1ebe eb2f 3dbd 6467 89bc
000003f0: 44da 633d b3b1 23be 9d34 84bc 711f d83d

conv_block.0.bias f4 [32]
0.02894215 0.020475792 -0.097565226 0.060144965 0.1379921 0.041071933 0.047195017 0.098403096
0.14492343 0.114208475 -0.069991626 0.054147977 -0.008262474 0.03289039 -0.00474667 -0.039748833
0.18543163 -0.04494422 -0.017872406 0.049207047 0.13686074 0.01826888 0.09777111 0.13789296
0.027916905 -0.08944933 0.10054745 0.07733935 -0.12857333 0.0842388 0.092134476 0.060238708
00000000: 1618 ed3c d9bc a73c 47d0 c7bd 915a 763d
00000010: cd4d 0d3e 0b3b 283d 904f 413d 9087 c93d
00000020: cf66 143e 22e6 e93d c557 8fbd 45ca 5d3d
00000030: 545f 07bc 13b8 063d f489 9bbb accf 22bd
00000040: cae1 3d3e 6e17 38bd 2769 92bc 548d 493d
00000050: 3925 0c3e 9ea8 953c 383c c83d d033 0d3e
00000060: feb1 e43c 3631 b7bd d2eb cd3d 1864 9e3d
00000070: baa8 03be 6485 ac3d 00b1 bc3d ddbc 763d

conv_block.2.weight f4 [32, 32, 5, 5]
0.009225053 0.085728094 0.0043448717 -0.096478105 -0.15559697 0.012463462 0.12308846 0.04525612
-0.1263886 -0.23427308 0.01249338 0.04493996 -0.028647432 -0.17529272 -0.23858261 0.17883186
0.13846736 -0.029573482 -0.14950098 -0.16326623 0.18367049 0.17173128 0.08238688 -0.04043154
-0.0059192455 0.12587342 0.05199689 -0.22189623 -0.05891751 0.0886363 0.16201097 -0.1379948
-0.21266818 0.016979948 0.25213665 0.07837851 -0.28759733 -0.15179926 0.102203384 0.24195844
-0.110788256 -0.43388507 -0.28027853 -0.029453423 0.08775269 -0.18267372 -0.3952469 -0.17322426
0.014248743 0.032572564 -0.017045766 0.0016156845 0.029007372 -0.007927852 -0.033788342 0.03491613
0.020259835 0.024060763 0.0044795163 0.026307449 0.028543625 0.009240136 0.01684229 0.020786162
-0.00260994 -0.016743591 -0.0060321297 -0.009132262 0.022393577 0.012524407 0.018464658 0.003779076
0.016847517 0.021198131 0.0049707964 0.0039344244 -0.124152936 -0.10720743 -0.051165868 0.06956973
0.14418247 -0.09286765 -0.13918583 -0.06331864 0.07917332 0.10665408 -0.07826732 -0.08280454
0.03660843 0.07308545 -0.118215755 -0.276419 -0.15114474 -0.05019653 0.06275112 -0.14698488
-0.2194555 -0.14948222 -0.081262715 0.015463839 0.0531298 0.030461714 -0.018636081 -0.03461224
-0.07629318 0.057577755 0.042440955 0.05342322 0.061217442 0.007981681 0.043657348 0.023064192
0.06691504 0.037072975 0.05365637 0.0073554046 0.060397167 -0.0005976696 -0.14164384 -0.11851427
-0.04671048 0.003995836 0.03412584 -0.10496831 -0.14552705 0.039673973 0.030073876 -0.02405075
-0.27332628 -0.14964387 0.0003930299 -0.043787222 -0.09874396 -0.25832412 -0.047871638 0.022541774
0.06179519 -0.04987497 -0.117812045 -0.09832959 0.0002825769 0.09259823 0.11155621 -0.015867956
-0.094532005 -0.04066658 0.0063251276 0.06544356 -0.018363064 -0.14657302 0.12968485 0.12013123
0.10304041 0.08427024 0.0009342275 -0.04997518 -0.026458697 -0.028162403 -0.16951923 -0.11418828
-0.021615876 0.05543121 -0.06285975 -0.20057997 -0.029392516 0.070544556 0.2380043 0.03702148
-0.0945585 0.037289027 0.04015954 0.07392118 -0.11921621 -0.07406331 0.06966118 0.0738903
0.11327515 -0.06441966 -0.09455438 0.017105522 -0.02926666 0.015776383 -0.05525189 -0.0030424353
0.11250399 -0.067342244 -0.029856766 -0.08636736 -0.03133986 -0.010267952 0.10122741 -0.027168836
-0.03582134 -0.03176317 -0.061072562 0.012021637 -0.041662056 0.0057986896 -0.100769214 -0.2342381
-0.11077041 0.0051995316 0.0055171098 0.007473038 -0.024603315 -0.093490176 0.055052415 0.03878603
0.07361558 0.09159566 -0.10270663 0.048508205 0.028999304 0.07896511 0.03382978 -0.09086869
0.0028346984 -0.056917008 -0.06321717 -0.015077426 -0.021648396 -0.027420484 0.01071217 -0.03947953
-0.111767985 -0.15168695 -0.22996803 -0.0973395 0.09019214 0.1573565 -0.018995719 -0.24331076
-0.06846911 0.08399853 0.19438802 0.011196901 -0.13267998 -0.0631777 -0.010773267 0.11233214
-0.013573392 -0.07702877 -0.049022082 0.013921681 0.0583218 -0.04612525 -0.07116558 0.042732127
0.09309079 0.12772536 0.02421525 0.013187382 -0.024375454 -0.010586439 -0.028832674 0.010394354
00000000: ad24 173c 3692 af3d 6d5f 8e3b 5096 c5bd
00000010: d054 1fbe 8c33 4c3c cd15 fc3d 7b5e 393d
00000020: 036c 01be 48e5 6fbe 09b1 4c3c f712 383d
00000030: 05ae eabc ef7f 33be 004f 74be b31f 373e
00000040: 63ca 0d3e 1644 f2bc c916 19be 432f 27be
00000050: 1e14 3c3e 53da 2f3e 74ba a83d 8b9b 25bd
00000060: 3bf6 c1bb f6e4 003e b1fa 543d c438 63be
00000070: 7d53 71bd f386 b53d 34e6 253e 824e 0dbe
00000080: b0c5 59be 8819 8b3c 0e18 813e ea84 a03d
00000090: f53f 93be 4471 1bbe 0250 d13d f4c3 773e
000000a0: f4e4 e2bd 2f26 debe ab80 8fbe 4e48 f1bc
000000b0: afb7 b33d d20e 3bbe cd5d cabe b361 31be
000000c0: 8f73 693c cf6a 053d 90a3 8bbc 60c5 d33a
000000d0: dea0 ed3c d2e3 01bc a565 0abd 3704 0f3d
000000e0: f4f7 a53c 141b c53c e8c8 923b b882 d73c
000000f0: 52d4 e93c f063 173c d8f8 893c be47 aa3c
00000100: 870b 2bbb db29 89bc 2ca9 c5bb 7c9f 15bc
00000110: bc72 b73c 2c33 4d3c 3243 973c 60aa 773b
00000120: ce03 8a3c b4a7 ad3c 10e2 a23b 58ec 803b
00000130: e543 febd 928f dbbd 4d93 51bd 937a 8e3d
00000140: 92a4 133e 6531 bebd bb86 0ebe 34ad 81bd
00000150: 9f25 a23d 746d da3d 9e4a a0bd 6d95 a9bd
00000160: b9f2 153d d3ad 953d 1a1b f2bd cb86 8dbe
00000170: b0c5 1abe e09a 4dbd a983 803d 3483 16be
00000180: f1b8 60be de11 19be 116d a6bd 0b5c 7d3c
00000190: a29e 593d d88a f93c b2aa 98bc 90c5 0dbd
000001a0: 993f 9cbd a7d6 6b3d 91d6 2d3d 4ed2 5a3d
000001b0: 24bf 7a3d 99c5 023c 0cd2 323d 1ef1 bc3c
000001c0: c10a 893d d5d9 173d c8c6 5b3d 9b05 f13b
000001d0: 0563 773d eeac 1cba 150b 11be 9cb7 f2bd
000001e0: 7d53 3fbd 80ef 823b 89c7 0b3d a0f9 d6bd
000001f0: 0b05 15be 2d81 223d 7d5d f63c 1406 c5bc
00000200: 6cf1 8bbe 3e3c 19be 950f ce39 3b5a 33bd
00000210: 463a cabd 0f43 84be 0d15 44bd 87a9 b83c
00000220: f41c 7d3d b249 4cbd 7147 f1bd 0661 c9bd
00000230: d426 9439 24a4 bd3d 9577 e43d 84fd 81bc
00000240: ff99 c1bd 0092 26bd 0443 cf3b 4607 863d
00000250: 236e 96bc 3d17 16be 1bcc 043e 5d07 f63d
00000260: da06 d33d e095 ac3d f2e6 743a c6b2 4cbd
00000270: e9bf d8bc d7b4 e6bc 7396 2dbe 8cdb e9bd
00000280: c713 b1bc d60b 633d 9dbc 80bd d664 4dbe
00000290: 93c8 f0bc aa79 903d 66b7 733e d6a3 173d
000002a0: e3a7 c1bd 61bc 183d 547e 243d fd63 973d
000002b0: a127 f4bd 81ae 97bd 85aa 8e3d cc53 973d
000002c0: cdfc e73d 74ee 83bd baa5 c1bd e120 8c3c
000002d0: a2c0 efbc 793d 813c ce4f 62bd 9863 47bb
000002e0: 7e68 e63d bbea 89bd 2d96 f4bc 5fe1 b0bd
000002f0: 3a5e 00bd ea3a 28bc 5150 cf3d 2e91 debc
00000300: 66b9 12bd 191a 02bd 3927 7abd 66f6 443c
00000310: d5a5 2abd ef02 be3b 1760 cebd 1ddc 6fbe
00000320: 99db e2bd d560 aa3b dfc8 b43b 63e0 f43b
00000330: e48c c9bc c777 bfbd a47e 613d 1ade 1e3d
00000340: c4c3 963d 8196 bb3d db57 d2bd 8ab0 463d
00000350: f38f ed3c 76b8 a13d 1891 0a3d 5d19 babd
00000360: 59c6 393b cf21 69bd 0178 81bd 4f07 77bc
00000370: fa57 b1bc eca0 e0bc 1982 2f3c 4ab5 21bd
00000380: 9de6 e4bd d353 1bbe bd7c 6bbe ef59 c7bd
00000390: a8b6 b83d 1022 213e e99c 9bbc 7526 79be
000003a0: 8839 8cbd 6c07 ac3d a70d 473e 3573 373c
000003b0: 43dd 07be 4f63 81bd 5b82 30bc 650e e63d
000003c0: ef62 5ebc 43c1 9dbd 61cb 48bd c317 643c
000003d0: d7e2 6e3d d5ed 3cbd 42bf 91bd e207 2f3d
000003e0: 62a6 be3d 70ca 023e 0f5f c63c e40f 583c
000003f0: 08af c7bc be72 2dbc 8032 ecbc 154d 2a3c

conv_block.2.bias f4 [32]
0.13852516 -0.09298799 0.011842094 -0.024505304 0.15343125 -0.02036948 0.06381213 0.038557764
0.046589606 0.048279945 -0.017024778 0.0059706206 0.16385268 -0.030600816 -0.034515645 0.22440633
-0.05770589 0.03868815 0.16152677 -0.031119205 -0.094005816 0.09912333 -0.002932892 -0.02321304
0.0061145825 -0.046726365 -0.0139280725 0.07418494 0.07727326 0.08595419 0.22929671 0.075306974
00000000: 8ad9 0d3e 7d70 bebd 5805 423c 59bf c8bc
00000010: 151d 1d3e e5dd a6bc efaf 823d bfee 1d3d
00000020: bed4 3e3d 31c1 453d 8c77 8bbc 32a5 c33b
00000030: ffc8 273e 90ae fabc 4760 0dbd c6ca 653e
00000040: 035d 6cbd 7777 1e3d 4667 253e b4ed febc
00000050: 1f86 c0bd 2c01 cb3d c335 40bb 4629 bebc
00000060: d65c c83b 2564 3fbd 9232 64bc 46ee 973d
00000070: 7141 9e3d c008 b03d c2cc 6a3e 8b3a 9a3d

conv_block.6.weight f4 [64, 32, 3, 3]
0.029486902 -0.0810714 0.03375272 0.03074854 -0.21038634 -0.08961241 -0.22904764 -0.17219065
-0.10252002 -0.13518703 -0.09849229 -0.12773865 -0.0030378539 0.009393616 -0.18869373 0.03322532
-0.015433043 -0.102005094 0.06631937 0.09987297 0.185954 0.029819628 -0.00014684626 -0.017111894
-0.014041367 -0.050345123 -0.057571568 -0.05384099 0.00035160407 0.016120715 0.02183232 -0.029240366
-0.0051304363 -0.012591921 0.012726653 -0.046049703 -0.018775944 0.057947524 0.16347621 -0.027510291
-0.08229782 0.031498212 -0.06917871 0.07016319 0.08726376 0.01769718 0.08811156 -0.0154654635
0.022561591 0.046711147 0.015322737 0.027065247 -0.011252851 -0.046552204 -0.15751842 -0.13057096
-0.08520541 -0.07475305 0.05925943 -0.0052545145 -0.049945008 0.02169536 -0.038419373 -0.15517645
-0.08566898 -0.06867728 -0.15038802 -0.12054892 0.023763405 -0.019801222 0.031738885 0.21865124
-0.18338473 0.1256475 0.03528015 -0.14865611 -0.005257307 -0.011972375 -0.10145984 -0.022644589
-0.096789375 -0.022577679 0.03571287 0.12529036 -0.16997008 -0.2024743 -0.21911846 -0.11355295
-0.23467994 -0.033996433 -0.22398093 -0.21830103 -0.187913 -0.10876303 -0.045116473 -0.05914384
0.015137507 0.0040452634 0.13525902 0.021946749 -0.007711959 0.035030156 0.06207697 0.043232717
-0.020364245 -0.10296785 -0.017519554 -0.023157658 0.021682972 -0.13393697 0.04648804 -0.011406842
0.041224517 0.12196814 0.088478945 0.07743305 0.076147884 0.05082048 0.010188654 -0.026763532
-0.03155476 -0.06189703 -0.033620834 0.005090682 -0.055412948 0.0065047713 0.051209312 0.08868347
0.087919034 -0.016300373 0.07251919 0.035639476 0.022892296 -0.04111785 -0.03345865 -0.020722207
-0.015045745 0.027323145 -0.00843599 0.03810355 0.020293226 0.07067653 0.04611625 0.08821618
0.068544015 0.075969785 0.081814624 0.007476107 0.09873326 0.041227363 0.10255498 0.001939662
0.004556798 0.07867588 0.09937185 0.04348716 -0.056621604 -0.032283697 -0.1319934 -0.10963348
-0.25852075 -0.10776547 -0.032924306 0.020948574 0.04867565 -0.0062198984 0.07068653 0.07556302
0.13510689 0.09654413 0.058318388 0.052189466 0.025346285 0.01665927 -0.055377454 0.0140755
0.0077297343 0.044603378 0.047567405 -0.01892717 0.013456419 -0.00844618 -0.022889255 -0.037057742
0.034431808 -0.021154745 0.04658615 0.044828717 -0.036972843 -0.049026996 -0.14453343 -0.12848626
-0.07693436 -0.15577242 0.0009026667 -0.10430727 0.10619029 0.15556748 0.0037206602 0.00093179656
-0.028156223 -0.04612189 -0.01781832 0.0060373223 -0.037534732 -0.08302254 -0.05819662 0.00880123
-0.025742736 -0.020361226 -0.0076583154 0.065367684 0.058067422 0.023341442 0.05667736 -0.035971582
-0.04555053 -0.025277028 0.016282288 -0.013468687 0.01205199 -0.040626176 0.06756682 -0.034755755
0.060732648 0.0722322 0.015343488 0.07724814 0.03358338 0.012896125 0.027835602 0.04865951
0.04913606 0.02050586 -0.024929779 -0.10200266 -0.06591404 -0.12161497 -0.16030985 -0.15882944
-0.07758982 -0.011801666 -0.078433715 -0.09804582 -0.05485485 0.053529877 -0.1282659 -0.06617903
0.07922004 0.043867197 0.015875386 -0.0025733637 0.03955025 -0.051510435 -0.02928842 0.0037574559
00000000: 848e f13c c308 a6bd 4b40 0a3d 5de4 fb3c
00000010: 846f 57be b686 b7bd 778b 6abe bf52 30be
00000020: 04f6 d1bd 786e 0abe 53b6 c9bd eccd 02be
00000030: bb16 47bb aee7 193c ee38 41be 4617 083d
00000040: e0da 7cbc 0ce8 d0bd 73d2 873d 338a cc3d
00000050: ba6a 3e3e 4b48 f43c befa 19b9 3e2e 8cbc
00000060: c30d 66bc b036 4ebd 2ad0 6bbd 5f88 5cbd
00000070: 8057 b839 970f 843c b2d9 b23c 7e89 efbc
00000080: 381d a8bb 584e 4ebc 7483 503c 9d9e 3cbd
00000090: 02d0 99bc 625a 6d3d 4f66 273e 435d e1bc
000000a0: c28b a8bd 4504 013d 91ad 8dbd b8b1 8f3d
000000b0: 58b7 b23d adf9 903c d573 b43d db62 7dbc
000000c0: 16d3 b83c 3054 3f3d 380c 7b3c f0b7 dd3c
000000d0: e15d 38bc 86ad 3ebd 824c 21be 65b4 05be
000000e0: 2d80 aebd 2118 99bd 04ba 723d 102e acbb
000000f0: 2393 4cbd 78ba b13c a25d 1dbd 93e6 1ebe
00000100: 3873 afbd aca6 8cbd 51ff 19be 5ae2 f6bd
00000110: 79ab c23c 2c36 a2bc a200 023d 1ce6 5f3e
00000120: 35c9 3bbe bda9 003e eb81 103d 4f39 18be
00000130: 7d45 acbb c827 44bc 2dca cfbd 2581 b9bc
00000140: 8239 c6bd d3f4 b8bc a947 123d 1e4c 003e
00000150: a30c 2ebe 6c55 4fbe 9760 60be 738e e8bd
00000160: f04f 70be d83f 0bbd 425b 65be 4e8a 5fbe
00000170: 446c 40be 27bf debd 0dcc 38bd d040 72bd
00000180: 4e03 783c 218e 843b 5781 0a3e abc9 b33c
00000190: 9ab4 fcbb c87b 0f3d 6c44 7e3d ca14 313d
000001a0: ebd2 a6bc cfe0 d2bd 2b85 8fbc 21b5 bdbc
000001b0: 7da0 b13c c626 09be 3e6a 3e3d c3e3 3abc
000001c0: 0adb 283d 6fca f93d 7334 b53d 3895 9e3d
000001d0: 6cf3 9b3d 2329 503d 50ee 263c 323f dbbc
000001e0: 903f 01bd bd87 7dbd 00b6 09bd bccf a63b
000001f0: b0f8 62bd fa25 d53b dbc0 513d ae9f b53d
00000200: e50e b43d 5c88 85bc f184 943d b3fa 113d
00000210: a088 bb3c 316b 28bd f00b 09bd 9ec1 a9bc
00000220: 6e82 76bc cad4 df3c 1b37 0abc 7812 1c3d
00000230: fb3d a63c dbbe 903d 65e4 3c3d afaa b43d
00000240: ce60 8c3d 0c96 9b3d 6d8e a73d 22fa f43b
00000250: aa34 ca3d 06de 283d 5808 d23d 423c fe3a
00000260: 3151 953b d220 a13d 7883 cb3d 981f 323d
00000270: 0eec 67bd e93b 04bd 4729 07be 8587 e0bd
00000280: d55c 84be 25b4 dcbd a3db 06bd 589c ab3c
00000290: 1e60 473d 4ad0 cbbb 19c4 903d c9c0 9a3d
000002a0: 7659 0a3e eeb8 c53d 43df 6e3d 9fc4 553d
000002b0: 03a3 cf3c 0579 883c 78d3 62bd ed9c 663c
000002c0: b649 fd3b 08b2 363d 0ad6 423d 270d 9bbc
000002d0: 5078 5c3c d961 0abc 3f82 bbbc dcc9 17bd
000002e0: 5e08 0d3d b74c adbc 1ed1 3e3d 519e 373d
000002f0: d670 17bd 88d0 48bd 9200 14be e791 03be
00000300: c38f 9dbd ce82 1fbe f0a0 6c3a 0d9f d5bd
00000310: 4b7a d93d 154d 1f3e 52d6 733b cf43 743a
00000320: e1a7 e6bc 4fea 3cbd baf7 91bc bbd4 c53b
00000330: 05be 19bd b907 aabd 945f 6ebd 0933 103c
00000340: 6ee2 d2bc 96cc a6bc 9bf2 fabb 7edf 853d
00000350: 1bd8 6d3d 8d36 bf3c 8526 683d f056 13bd
00000360: 3193 3abd c511 cfbc 6f62 853c c5ab 5cbc
00000370: b675 453c a267 26bd 7960 8a3d 0d5c 0ebd
00000380: ccc2 783d 7aee 933d 4163 7b3c 4634 9e3d
00000390: ba8e 093d 454a 533c 7d07 e43c 324f 473d
000003a0: e542 493d e8fb a73c 8939 ccbc c5e6 d0bd
000003b0: f1fd 86bd 4511 f9bd 4428 24be 2fa4 22be
000003c0: 69e7 9ebd c65b 41bc dba1 a0bd 3fcc c8bd
000003d0: 7baf 60bd 2542 5b3d 2358 03be df88 87bd
000003e0: 1e3e a23d 17ae 333d 190d 823c e1a5 28bb
000003f0: 71ff 213d 9bfc 52bd 45ee efbc a63f 763b

conv_block.6.bias f4 [64]
0.1804005 0.048055004 0.32689896 -0.01874182 0.030313814 -0.013037644 0.16051602 -0.08995394
-0.068864785 0.4124617 -0.17076315 -0.16957562 0.27199638 0.18146306 0.04157151 0.29379642
-0.24066372 0.12802586 0.18740273 0.18415089 -0.14938384 0.1977183 -0.06515212 0.08574326
-0.118141115 0.19911306 0.19338068 0.124371156 0.16768056 0.030663539 -0.10854792 0.12782928
0.04816863 0.017775103 0.01265319 -0.089877106 -0.01306618 0.12383532 0.03528619 0.063356884
0.1577307 -0.1302831 0.23191836 -0.0091480715 -0.10581959 0.34802845 0.2725118 -0.06273664
0.28696808 0.04617228 0.30792043 -0.033129547 0.017778484 0.0013494361 0.030860605 0.24286541
0.11804509 0.0720449 0.045837708 0.03630756 0.11873807 0.054139215 0.16513102 0.13465698
00000000: e9ba 383e 53d5 443d 4d5f a73e 7288 99bc
00000010: ad54 f83c d89b 55bc 505e 243e c539 b8bd
00000020: fb08 8dbd 2e2e d33e 89dc 2ebe 3ba5 2dbe
00000030: 1c43 8b3e 74d1 393e e346 2a3d 7c6c 963e
00000040: 8d70 76be 3619 033e 80e6 3f3e 0d92 3c3e
00000050: 14f8 18be ab76 4a3e 7a6e 85bd 2a9a af3d
00000060: f8f3 f1bd 4be4 4b3e 9605 463e 4eb6 fe3d
00000070: 74b4 2b3e 1a32 fb3c 5f4e debd aee5 023e
00000080: 784c 453d 189d 913c 534f 4f3c 7d11 b8bd
00000090: 8813 56bc 5f9d fd3d 4188 103d 41c1 813d
000000a0: 2884 213e ef68 05be 027c 6d3e cbe1 15bc
000000b0: f1b7 d8bd c930 b23e ab86 8b3e 117c 80bd
000000c0: 7bed 923e 251f 3d3d bfa7 9d3e d9b2 07bd
000000d0: 2fa4 913c 90df b03a 61cf fc3c b6b1 783e
000000e0: a0c1 f13d 478c 933d 52c0 3b3d 3cb7 143d
000000f0: f22c f33d 15c1 5d3d 1b18 293e 85e3 093e

conv_block.8.weight f4 [64, 64, 3, 3]
0.04335823 -0.06511592 -0.080008976 -0.10536353 -0.114503525 0.12816095 -0.14208597 -0.034416307
0.0010347639 -0.15702517 -0.1045096 -0.31288782 0.09420227 -0.02676559 -0.13292566 0.19482958
0.12566265 0.085047446 -0.022402408 0.0459967 0.025765544 -0.09946087 -0.14811301 0.1753126
0.15490401 0.0006141141 -0.11948619 -0.047866564 0.012732327 -0.03172377 0.090856515 -0.01113005
-0.34083736 0.12954025 -0.025146708 -0.44964066 -0.059276126 -0.058381677 -0.18570434 -0.048527606
0.037286002 -0.24921788 -0.012512782 0.028473865 -0.10931566 -0.12911145 0.10785303 0.05950212
-0.019202355 0.032316394 0.25339353 0.029279701 -0.14626917 0.08026502 -0.004916964 0.04314392
-0.0012660283 -0.28677565 -0.31757042 -0.05140806 0.023733519 -0.101121 -0.17582534 0.016593631
-0.00042888953 0.025498845 -0.013628328 0.01754094 -0.011658252 0.031832542 -0.036193535 0.036555532
0.009949122 0.023388421 0.009807738 -0.042262394 0.056495734 0.053589325 0.048212007 0.008434661
-0.06397269 -0.2989871 -0.038959667 0.0026143498 -0.21314955 -0.16730814 -0.22642809 0.1383538
0.26576316 0.07718415 -0.1516459 -0.12300061 -0.026793791 -0.40076277 -0.13109615 -0.16687918
-0.07699385 0.02714819 -0.07809931 0.03778917 -0.033657797 0.10954856 -0.17995961 -0.01786302
-0.034603287 -0.11269858 -0.097891904 -0.024527883 0.029982992 -0.15161476 -0.19622059 0.25402874
0.1921822 0.019754684 0.09435152 -0.0557873 0.030131621 0.05852522 0.14554991 0.006205771
0.040604085 -0.07198056 0.09494776 -0.07880872 -0.36033005 0.10925705 0.08664331 -0.080544785
-0.06064168 -0.011634179 -0.09794093 0.026126204 -0.10048956 -0.11375767 0.027909275 0.12852995
0.2612933 0.016507378 0.18806605 0.008169497 -0.067747414 0.13185914 0.07492821 0.10909091
0.07757777 -0.035432417 -0.12301713 -0.27516228 0.010912762 0.024973912 -0.15459993 -0.113381326
-0.09477763 -0.12482276 -0.05101019 -0.014508655 0.01128419 -0.057450045 0.2550211 -0.024487965
-0.16356264 -0.11207427 -0.06893929 -0.10258666 0.04403649 0.15622997 -0.19569571 0.0063378005
0.07898916 -0.15770933 -0.16557263 -0.13245606 -0.028857553 0.14686395 -0.19270031 -0.12949428
-0.11867157 0.07705019 -0.113120995 0.18057771 -0.081882305 -0.025470275 -0.026008813 -0.062793896
0.07125674 -0.05106247 -0.13464804 -0.022445418 -0.2135382 -0.2317282 -0.069711186 -0.24992833
-0.08229899 0.14491083 0.0016970304 0.013516588 0.14542711 0.17679971 -0.06673606 -0.06122706
-0.1022393 -0.20311014 -0.06432364 -0.35575822 0.082627974 0.012795046 -0.20435642 0.1080902
-0.007827535 0.028105695 0.05131771 -0.008089138 0.03606482 -0.03448749 0.04109531 0.14366034
-0.078971505 -0.08265994 0.034473225 -0.04037334 0.039524835 -0.21370092 -0.1158684 0.026299741
-0.17877087 0.10604236 0.2171734 0.099445954 0.17959408 0.18495274 0.10525878 -0.11110893
-0.016027236 0.077974394 -0.10341196 0.035232697 0.26216218 0.097372465 -0.10179333 0.15301658
0.17440747 -0.13638543 0.0400761 0.06524945 -0.09723595 -0.23325062 -0.35056302 0.026688559
-0.015730614 -0.21637762 0.13702027 0.119246736 -0.021679021 -6.223335e-05 0.109565355 -0.33887595
00000000: 6698 313d 7f5b 85bd bfdb a3bd d6c8 d7bd
00000010: d380 eabd a03c 033e fc7e 11be 1df8 0cbd
00000020: eaa0 873a 35cb 20be 2109 d6bd d532 a0be
00000030: 1fed c03d 8343 dbbc aa1d 08be 6881 473e
00000040: b6ad 003e 5b2d ae3d 4185 b7bc 0967 3c3d
00000050: 4312 d33c 24b2 cbbd f0aa 17be 2585 333e
00000060: 289f 1e3e 80fc 203a 2db5 f4bd bb0f 44bd
00000070: 409b 503c c9f0 01bd fb12 ba3d d05a 36bc
00000080: 3c82 aebe 33a6 043e 7800 cebc 4d37 e6be
00000090: 86cb 72bd a021 6fbd 4729 3ebe e2c4 46bd
000000a0: 35b9 183d f932 7fbe 6902 4dbc 0642 e93c
000000b0: e4e0 dfbd cb35 04be 0de2 dc3d 7fb8 733d
000000c0: 424e 9dbc 325e 043d ccbc 813e fcdb ef3c
000000d0: 96c7 15be fd61 a43d 7c1e a1bb aeb7 303d
000000e0: dcf0 a5ba 42d4 92be 9798 a2be 4291 52bd
000000f0: cc6c c23c 8718 cfbd 8f0b 34be 5eef 873c
00000100: 94dc e0b9 f4e2 d03c 5a49 5fbc 04b2 8f3c
00000110: 4102 3fbc d762 023d ac3f 14bd 41bb 153d
00000120: a401 233c 1399 bf3c a2b0 203c 551b 2dbd
00000130: 1268 673d 7b80 5b3d f479 453d 8831 0a3c
00000140: 1d04 83bd d614 99be 2c94 1fbd 8355 2b3b
00000150: e043 5abe d352 2bbe c4dc 67be 9eac 0d3e
00000160: 1c12 883e b912 9e3d 1049 1bbe bee7 fbbd
00000170: a77e dbbc c730 cdbe 123e 06be 60e2 2abe
00000180: f4ae 9dbd e265 de3c 88f2 9fbd d1c8 1a3d
00000190: c2dc 09bd ff5a e03d 5547 38be 7855 92bc
000001a0: 2dbc 0dbd 83ce e6bd 8d7b c8bd b3ee c8bc
000001b0: e49e f53c e640 1bbe 0dee 48be 0e10 823e
000001c0: 69cb 443e 93d4 a13c 5f3b c13d 3981 64bd
000001d0: 97d6 f63c 24b8 6f3d 090b 153e c859 cb3b
000001e0: 7850 263d 8b6a 93bd f973 c23d 7766 a1bd
000001f0: 2e7d b8be 29c2 df3d 0c72 b13d aaf4 a4bd
00000200: 6963 78bd 499d 3ebc 4195 c8bd 9f06 d63c
00000210: 78cd cdbd c8f9 e8bd fea1 e43c 5b9d 033e
00000220: 3cc8 853e 7b3a 873c 6394 403e 5bd9 053c
00000230: 28bf 8abd 1506 073e f673 993d 0e6b df3d
00000240: 18e1 9e3d 9521 11bd 68f0 fbbd 12e2 8cbe
00000250: 71cb 323c 1796 cc3c 724f 1ebe 7834 e8bd
00000260: c61a c2bd 13a3 ffbd 10f0 50bd b6b5 6dbc
00000270: 53e1 383c bd50 6bbd 2092 823e fc9a c8bc
00000280: f77c 27be 3287 e5bd 0b30 8dbd f418 d2bd
00000290: 9b5f 343d c0fa 1f3e 7564 48be 53ad cf3b
000002a0: 12c5 a13d 8e7e 21be df8b 29be 90a2 07be
000002b0: ad66 ecbc 8163 163e 3b53 45be 269a 04be
000002c0: 150a f3bd 7dcc 9d3d fbab e7bd 5de9 383e
000002d0: e9b1 a7bd 0aa7 d0bc 6f10 d5bc 169a 80bd
000002e0: 0eef 913d e126 51bd 2de1 09be 74df b7bc
000002f0: c2a9 5abe 284a 6dbe bdc4 8ebd 36ed 7fbe
00000300: 5f8c a8bd 8163 143e e46e de3a ae74 5d3c
00000310: d8ea 143e fc0a 353e eaac 88bd 3ac9 7abd
00000320: d762 d1bd 1bfc 4fbe 1dbc 83bd f125 b6be
00000330: db38 a93d 50a2 513c cf42 51be 655e dd3d
00000340: 103f 00bc ea3d e63c 8532 523d 4e88 04bc
00000350: b4b8 133d c142 0dbd 8e53 283d b21b 133e
00000360: d0bb a1bd 9d49 a9bd cc33 0d3d 845e 25bd
00000370: cbe4 213d 6ad4 5abe 694c edbd 8e72 d73c
00000380: b60f 37be bd2c d93d b462 5e3e 52aa cb3d
00000390: 83e7 373e 4064 3d3e ea91 d73d 148d e3bd
000003a0: 8d4b 83bc 0ab1 9f3d a6c9 d3bd 2950 103d
000003b0: 1f3a 863e 376b c73d 0579 d0bd 61b0 1c3e
000003c0: df97 323e 9fa8 0bbe d626 243d 81a1 853d
000003d0: a423 c7bd 40d9 6ebe ff7c b3be f7a1 da3c
000003e0: 7ddd 80bc 1892 5dbe 0b4f 0c3e a237 f43d
000003f0: 3498 b1bc 4683 82b8 cd63 e03d 2681 adbe

conv_block.8.bias f4 [64]
0.021561675 -0.0004328109 -0.057968374 -0.015598533 -0.07255496 0.18501541 0.22847444 0.13209513
-0.05635057 0.09697018 0.112884946 -0.06270453 0.08516858 -0.023638222 -0.024622995 0.028433656
-0.077077754 0.10604657 0.016388118 0.018864717 0.012681385 -0.05312641 -0.04577226 0.26528108
0.18578716 -0.014385151 0.19070421 0.16546229 -0.086597845 0.032020822 -0.04409941 -0.07110258
0.10197319 -0.042039536 -0.02412668 0.10143023 0.05774448 0.021984799 -0.0023812593 -0.049868904
0.09115712 -0.012268115 -0.014593986 0.12045891 0.079969116 -0.062214993 0.04775194 0.09780164
0.2037113 -0.055091735 0.09024704 0.1392355 -0.04587643 0.11390521 0.05531452 -0.033316348
-0.0076574096 0.01831071 0.07056899 0.11267089 -0.034521323 0.03727762 -0.055237986 0.15451589
00000000: 1ca2 b03c e5ea e2b9 3f70 6dbd fd90 7fbc
00000010: b297 94bd ae74 3d3e 34f5 693e f243 073e
00000020: dbcf 66bd 4d98 c63d 3930 e73d 3c6b 80bd
00000030: dd6c ae3d f2a4 c1bc 2ab6 c9bc b3ed e83c
00000040: f1da 9dbd f22e d93d 6040 863c 2e8a 9a3c
00000050: 95c5 4f3c 149b 59bd b17b 3bbd ecd2 873e
00000060: fd3e 3e3e b2af 6bbc f747 433e f26e 293e
00000070: 365a b1bd 4428 033d 95a1 34bd 3b9e 91bd
00000080: 52d7 d03d a631 2cbd 51a5 c5bc a7ba cf3d
00000090: 7a85 6c3d 7719 b43c e70e 1cbb 5643 4cbd
000000a0: 96b0 ba3d 3400 49bc 9d1b 6fbc 29b3 f63d
000000b0: d9c6 a33d 26d5 7ebd 8a97 433d 3a4c c83d
000000c0: b299 503e dfa7 61bd 71d3 b83d c093 0e3e
000000d0: ece8 3bbd 2247 e93d 7a91 623d b976 08bd
000000e0: 02eb fabb 5800 963c 7a86 903d ffbf e63d
000000f0: 3b66 0dbd 6bb0 183d 3a41 62bd 6a39 1e3e

fc_block.1.weight f4 [256, 576]
-0.10485795 -0.13005278 0.00717159 0.008822324 -0.03938362 -0.07728227 0.0016200492 0.02426479
0.02230898 -0.027569389 -0.0039771306 -0.0049785124 0.013810762 -0.03773457 -0.041999426 -0.006078222
0.025516631 -0.031152446 0.009520169 0.029355142 0.023160841 0.016078353 -0.023555513 -0.014742162
0.017573874 0.026574116 -0.028387725 -0.024828112 0.026697677 0.0048095398 0.018845886 0.014122948
-0.011014855 0.019843247 0.0017857738 -0.00668272 0.034308016 -0.015095405 0.0028029361 0.027035026
-0.024461607 0.03370006 -0.0043803127 -0.014637724 0.029979866 -0.04334678 -0.09367811 -0.17895515
-0.10171172 -0.10190379 -0.06133145 -0.009141286 0.05209977 0.07297362 -0.014006308 -0.027349714
-0.04940276 -0.081749655 0.0079856105 0.019081386 -0.059412133 0.02995202 0.04011681 -0.01251784
-0.022629073 0.033524252 -0.004368248 -0.08613552 0.06288542 -0.07735029 -0.11814677 -0.052503075
0.025874339 -0.03594569 0.010731604 -0.007411957 -0.01997392 0.011810141 0.027809603 0.033012256
-0.008889072 -0.030131357 -0.049887426 -0.017149044 0.013483678 -0.0019073092 0.07974518 -0.0896405
-0.106069185 0.009207427 0.036481146 -0.020744106 -0.08557823 -0.06810094 0.053427514 0.033801436
0.07264082 0.08342247 0.06401394 0.036936086 -0.006370086 0.032401305 -0.026397666 -0.031246062
0.022901718 0.026530322 0.037645224 0.027297687 -0.08427279 -0.093034305 -0.19444416 -0.04196694
-0.029580617 0.09589514 -0.10104629 -0.01735612 0.020056037 0.0232053 0.025266329 -0.038216393
0.02577503 0.045014918 0.018864788 0.03380484 0.09624659 0.08654067 0.014468323 -0.043644756
-0.03707278 -0.024523897 -0.021172753 -0.02078253 0.0034263136 0.017346011 -0.029928738 -0.028664403
-0.033729695 -0.039948307 0.019379029 -0.022095455 -0.020735588 0.0016874318 -0.0032086142 -0.008461943
-0.037388965 -0.031259373 -0.039744876 -0.001400549 0.018725429 -0.010556212 0.0035207123 0.020245057
0.029702548 0.060469087 -0.060856875 -0.14220063 -0.09625929 -0.070727386 -0.09767994 -0.084913276
-0.064739265 -0.065427154 -0.019981002 -0.08941779 -0.11652348 -0.17420761 -0.027469609 0.01645382
-0.12980478 -0.024437658 -0.05083486 0.013502264 0.0058288146 0.04055444 -0.061578326 0.023105966
0.10914281 -0.019143142 -0.12887378 -0.07539251 -0.0036163328 0.0062028123 0.010720824 -0.04516921
-0.04223394 0.006970452 0.033239648 -0.033383094 -0.009430383 0.040962953 -0.008527514 0.0032099336
0.0007017292 0.032214504 -0.014839789 0.03628521 0.034638364 -0.026772987 -0.09482608 -0.0381015
0.023753248 -0.02621831 -0.05602829 -0.0445704 -0.052052483 -0.0016353701 -0.039655987 0.0014376304
-0.115047365 -0.051690068 -0.037452657 0.0067793936 -0.045788534 0.020372398 0.036758997 -0.035365045
-0.1334147 -0.15249313 0.04661621 -0.03822366 -0.13745816 -0.004853952 -0.1410168 -0.07585879
-0.039245915 0.022560239 -0.015067464 -0.024278227 0.033569712 -0.034973193 -0.044883773 -0.007548274
0.019395329 -0.048257746 0.12990282 -0.008259939 -0.10559094 -0.09704389 -0.054578777 -0.043807752
-0.0025442566 -0.04466493 -0.06402968 0.010595329 -0.113647595 -0.039894294 -0.06096269 -0.053783152
-0.07844986 -0.1527498 -0.07440599 0.043348197 -0.028379101 -0.042961165 0.013745611 -0.03460356
00000000: c4bf d6bd 8e2c 05be a8ff ea3b 828b 103c
00000010: b850 21bd 2b46 9ebd d557 d43a f4c6 c63c
00000020: 52c1 b63c 33d9 e1bc 9752 82bb ca22 a3bb
00000030: 8946 623c 918f 1abd 9707 2cbd d22b c7bb
00000040: 4108 d13c 6a33 ffbc 7cfa 1b3c 327a f03c
00000050: cebb bd3c c0b6 833c 7ef7 c0bc 1c89 71bc
00000060: 16f7 8f3c f6b1 d93c 608d e8bc 5364 cbbc
00000070: 16b5 da3c 5899 9d3b b062 9a3c f063 673c
00000080: a677 34bc 4e8e a23c a010 ea3a b8fa dabb
00000090: 9086 0c3d b852 77bc 77b1 373b 8f78 dd3c
000000a0: b563 c8bc 1309 0a3d ba88 8fbb 10d3 6fbc
000000b0: 5698 f53c 658c 31bd 4fda bfbd 0540 37be
000000c0: 3c4e d0bd efb2 d0bd b036 7bbd 55c5 15bc
000000d0: 9266 553d 3173 953d b77a 65bc 820c e0bc
000000e0: 8c5a 4abd 5d6c a7bd 14d6 023c 9150 9c3c
000000f0: 235a 73bd f05d f53c 8651 243d a017 4dbc
00000100: 9b60 b9bc ba50 093d 8523 8fbb d267 b0bd
00000110: 12ca 803d d469 9ebd eff6 f1bd 770d 57bd
00000120: 6cf6 d33c ca3b 13bd 9cd3 2f3c 00e0 f2bb
00000130: 59a0 a3bc 527f 413c f7d0 e33c dc37 073d
00000140: 78a3 11bc 09d6 f6bc c256 4cbd 277c 8cbc
00000150: a5ea 5c3c adfe f9ba 7151 a33d 7095 b7bd
00000160: cd3a d9bd bfda 163c 416d 153d 8bef a9bc
00000170: a443 afbd 8178 8bbd cfd6 5a3d 6073 0a3d
00000180: b6c4 943d 66d9 aa3d be19 833d 4b4a 173d
00000190: 28bc d0bb 3bb7 043d eb3f d8bc bef7 ffbc
000001a0: 629c bb3c 1e56 d93c e131 1a3d 669f df3c
000001b0: 3697 acbd c588 bebd 5f1c 47be 87e5 2bbd
000001c0: 0d53 f2bc ac64 c43d 5bf1 cebd 6c2e 8ebc
000001d0: 8f4c a43c 0b19 be3c 55fb ce3c cb88 1cbd
000001e0: 2826 d33c 9061 383d 548a 9a3c f276 0a3d
000001f0: ef1c c53d 3c3c b13d 8c0c 6d3c d8c4 32bd
00000200: a1d9 17bd 57e6 c8bc 7b72 adbc 2040 aabc
00000210: 018c 603b 3919 8e3c 1d2d f5bc 9cd1 eabc
00000220: 2628 0abd d6a0 23bd c5c0 9e3c 8701 b5bc
00000230: aedd a9bc d12c dd3a 9d47 52bb f6a3 0abc
00000240: 2c25 19bd d409 00bd 86cb 22bd a092 b7ba
00000250: 1266 993c f6f3 2cbc c0bb 663b f6d8 a53c
00000260: c252 f33c 6fae 773d 0f45 79bd 0b9d 11be
00000270: 9723 c5bd 85d9 90bd 6c0c c8bd 03e7 adbd
00000280: 0596 84bd acfe 85bd 33af a3bc ad20 b7bd
00000290: dda3 eebd 7b63 32be f207 e1bc 29ca 863c
000002a0: 8beb 04be 7c31 c8bc 3738 50bd 9a38 5d3c
000002b0: a4ff be3b 6a1c 263d 8e39 7cbd b948 bd3c
000002c0: 4486 df3d 14d2 9cbc 7df7 03be 6367 9abd
000002d0: ffff 6cbb f640 cb3b 65a6 2f3c 5903 39bd
000002e0: 7ffd 2cbd 6468 e43b 4c26 083d b6bc 08bd
000002f0: e581 1abc c5c8 273d fcb6 0bbc c05d 523b
00000300: 40f4 373a 5bf3 033d 9622 73bc cd9f 143d
00000310: f5e0 0d3d 0653 dbbc 2d34 c2bd 5210 1cbd
00000320: 2c96 c23c c8c7 d6bc ec7d 65bd 748f 36bd
00000330: fc34 55bd ea59 d6ba 516e 22bd df6e bc3a
00000340: f49d ebbd f7b8 53bd f567 19bd ad25 de3b
00000350: c28c 3bbd 04e4 a63c 9a90 163d f0da 10bd
00000360: dd9d 08be 2927 1cbe a4f0 3e3d 6a90 1cbd
00000370: d5c1 0cbe e70d 9fbb b566 10be da5b 9bbd
00000380: 53c0 20bd 40d0 b83c 86dd 76bc 22e3 c6bc
00000390: 6580 093d 0d40 0fbd 0cd8 37bd 8357 f7bb
000003a0: f4e2 9e3c eaa9 45bd 3f05 053e b254 07bc
000003b0: 1040 d8bd f2be c6bd ff8d 5fbd c26f 33bd
000003c0: 8bbd 26bb 93f2 36bd fe21 83bd 0898 2d3c
000003d0: 12c0 e8bd 3368 23bd 03b4 79bd b94b 5cbd
000003e0: 52aa a0bd 726a 1cbe 2b62 98bd e18d 313d
000003f0: 4a7b e8bc 0cf8 2fbd 4535 613c 76bc 0dbd

fc_block.1.bias f4 [256]
0.036170404 0.07572666 0.16584763 0.059714485 0.024334524 -0.008831857 0.024737531 -0.12341848
0.13379267 0.025050923 0.12346417 0.15482439 0.020921659 0.13950357 0.0003437169 -0.055756014
0.14653239 0.038332794 0.010202943 0.14871423 0.019367173 -0.0675942 0.022777919 0.0977649
0.031097317 -0.013769733 -0.046599284 0.058546957 0.06255225 0.03602421 0.024931062 0.0899601
0.07954053 -0.07088984 0.18284512 -0.025950707 -0.05005472 0.0040964857 -0.0005426243 0.04462307
0.00023962492 -0.013966222 -0.06295701 0.15070705 0.07426179 -0.035374794 0.07935811 -0.050260175
0.061777405 -0.033488184 0.014886428 0.0739236 0.106980816 0.08674879 0.060287364 0.03461259
0.006116079 0.02531387 0.019598806 0.043548685 0.046580818 0.08059557 0.049580805 -0.025571622
0.12169062 0.10345285 0.110874034 -0.005698614 0.068222016 0.21820155 0.029489387 -0.047840312
-0.0018899468 0.0076243104 0.019686056 0.12133839 -0.0070822337 0.026106667 -0.029652696 0.020937933
-0.030796366 0.017514087 0.08887461 -0.02030525 -0.009278054 0.11402757 0.08557596 0.058443252
0.09848739 0.0029321294 -0.045828767 -0.0058972714 0.034200046 0.03617633 0.15355541 -0.023409208
-0.032101322 0.007836576 -0.00999971 -0.029882206 0.20951922 0.071720846 -0.00012502947 0.032996967
-0.021630013 -0.01859704 -0.06325461 0.011516359 0.019816719 -0.013281252 0.05375142 -0.04906722
0.21535195 0.031864718 0.14310558 -0.0075899484 -0.0483039 0.048312988 -0.027903054 -0.037309803
0.10811301 -0.013793324 0.14633135 0.0041763 -0.057687268 0.022958206 0.110975765 -0.04762537
0.027838597 -0.018598413 -0.02077469 0.021925166 0.1826989 -0.0071206805 0.017566383 0.16894792
0.16288635 -0.04375855 0.081476346 0.05540409 -0.00019254266 0.082584195 -0.0029092503 0.07329285
-0.06444475 0.032417018 0.08973679 0.06241533 0.07314326 0.102562584 -0.023339331 0.20969674
0.12026915 0.094073296 0.06696379 -0.06404164 -0.032350574 0.0015072506 -0.03391226 -0.05756895
0.07585977 -0.1362416 -0.011191462 -0.004564776 0.01802024 0.055374328 0.0063207117 -0.01183384
0.023946824 0.14533852 0.15516569 0.08561333 0.13067965 0.049970906 0.044803992 -0.05313105
-0.012630562 -0.026152922 -0.029780142 0.11424724 0.050358605 0.0050509623 -0.0009440009 0.11642178
0.10894246 -0.007772209 0.112401254 -0.055794343 -0.0235291 0.19856969 0.11229832 -0.056714855
-0.020340241 -0.005196231 0.011837275 0.12944119 0.042601917 0.14148426 -0.030471174 0.08513877
0.11726522 -0.030614285 0.027942574 -0.022741143 0.109828755 0.048740514 0.12709875 0.17260489
-0.060801536 0.0023570221 -0.05601479 0.17254542 0.103856355 0.02699381 0.1262108 -0.034127373
0.0376793 0.09312377 0.05061634 0.08356419 -0.07227271 -0.003019499 0.024717467 -0.07051151
0.01794813 0.11423996 -0.0057687047 0.19223703 0.01681269 0.10207696 -0.061820406 -0.030982403
0.0024034616 -0.004674459 -0.021307023 0.0046268185 -0.0079729445 0.03994012 0.00515948 -0.025030985
0.04498134 -0.06273974 0.05538849 -0.003472883 0.07323805 0.017341409 -0.017690662 -0.041316003
0.01013772 0.045215573 0.033477098 0.079677396 -0.004619518 0.052962545 -0.07421403 0.026065854
00000000: 6b27 143d 9416 9b3d f6d3 293e 2d97 743d
00000010: 3259 c73c 7eb3 10bc 5da6 ca3c d4c2 fcbd
00000020: f200 093e 9837 cd3c c8da fc3d 498a 1e3e
00000030: e663 ab3c 06da 0e3e e734 b439 6b60 64bd
00000040: 960c 163e d902 1d3d 3f2a 273c 8b48 183e
00000050: e8a7 9e3c d46e 8abd c298 ba3c f738 c83d
00000060: cdbf fe3c 729a 61bc e4de 3ebd efce 6f3d
00000070: 651b 803d 1f8e 133d 3a3c cc3c 003d b83d
00000080: 25e6 a23d b12e 91bd c03b 3b3e 9496 d4bc
00000090: 2e06 4dbd d03b 863b e63e 0eba aec6 363d
000000a0: d343 7b39 95d2 64bc 9bef 80bd f352 1a3e
000000b0: 9116 983d 29e5 10bd 8186 a23d 9ddd 4dbd
000000c0: 4e0a 7d3d e82a 09bd 34e6 733c 4265 973d
000000d0: c218 db3d 5aa9 b13d e2ef 763d eec5 0d3d
000000e0: 6469 c83b 085f cf3c ad8d a03c 1b60 323d
000000f0: 87cb 3e3d 4a0f a53d 3e15 4b3d 947b d1bc
00000100: ef38 f93d 16df d33d ed11 e33d 70bb babb
00000110: fcb7 8b3d 3a70 5f3e ba93 f13c 34f4 43bd
00000120: 17b8 f7ba 5ad5 f93b a744 a13c 4380 f83d
00000130: 1512 e8bb a6dd d53c 36ea f2bc 0786 ab3c
00000140: a948 fcbc b479 8f3c e403 b63d 3257 a6bc
00000150: fb02 18bc 4987 e93d 7342 af3d 3162 6f3d
00000160: c2b3 c93d f828 403b f2b6 3bbd e63d c1bb
00000170: 5915 0c3d a22d 143d a13d 1d3e abc4 bfbc
00000180: ad7c 03bd fb64 003c d3d5 23bc 87cb f4bc
00000190: 358c 563e 61e2 923d 581a 03b9 d427 073d
000001a0: 6d31 b1bc d258 98bc a28b 81bd 1caf 3c3c
000001b0: ac56 a23c 9c99 59bc 732a 5c3d b6fa 48bd
000001c0: 3985 5c3e 9484 023d 458a 123e 1ab5 f8bb
000001d0: 4fda 45bd d7e3 453d f294 e4bc 2ad2 18bd
000001e0: 5b6a dd3d 65fd 61bc e3d7 153e 58d9 883b
000001f0: 7c49 6cbd d912 bc3c 4347 e33d d212 43bd
00000200: c50d e43c b35b 98bc af2f aabc 689c b33c
00000210: 6c15 3b3e 9954 e9bb 60e7 8f3c af00 2d3e
00000220: aecb 263e 2a3c 33bd 12dd a63d 66ef 623d
00000230: 47e5 49b9 e721 a93d 1fa9 3ebb 901a 963d
00000240: 9cfb 83bd b5c7 043d ecc7 b73d 38a7 7f3d
00000250: 22cc 953d 550c d23d 2032 bfbc beba 563e
00000260: ac4f f63d 80a9 c03d 5024 893d 4328 83bd
00000270: 0982 04bd f08e c53a 95e7 0abd 6bcd 6bbd
00000280: 5e5c 9b3d eb82 0bbe 655c 37bc 1e94 95bb
00000290: 2f9f 933c 31d0 623d f91d cf3b b9e2 41bc
000002a0: 212c c43c 9fd3 143e c1e3 1e3e 0b56 af3d
000002b0: e3d0 053e 4bae 4c3d 6484 373d f29f 59bd
000002c0: 6bf0 4ebc a73e d6bc 7cf5 f3bc 75fa e93d
000002d0: d344 4e3d 8b82 a53b d476 77ba 8b6e ee3d
000002e0: 391d df3d 04ae febb a132 e63d 9c88 64bd
000002f0: 19c0 c0bc da55 4b3e a9fc e53d d64d 68bd
00000300: 94a0 a6bc 2545 aabb 21f1 413c 3b8c 043e
00000310: 597f 2e3d 40e1 103e af9e f9bc 3c5d ae3d
00000320: bf28 f03d cfca fabc d3e7 e43c a24b babc
00000330: e6ed e03d 22a4 473d 2d26 023e 56bf 303e
00000340: 080b 79bd 4578 1a3b c46f 65bd bfaf 303e
00000350: a4b2 d43d 1f22 dd3c 673d 013e 25c9 0bbd
00000360: 9c55 1a3d adb7 be3d 1453 4f3d b423 ab3d
00000370: b703 94bd c9e2 45bb 497c ca3c 5768 90bd
00000380: f507 933c a4f6 e93d 6707 bdbb c9d9 443e
00000390: c4ba 893c ba0d d13d 6537 7dbd cfce fdbc
000003a0: 6583 1d3b 342c 99bb 118c aebc 919c 973b
000003b0: f4a0 02bc 4098 233d db10 a93b c80d cdbc
000003c0: 5b3e 383d b17d 80bd 0bdf 623d 4f99 63bb
000003d0: d5fd 953d 920f 8e3c 02ec 90bc f83a 29bd
000003e0: ae18 263c f733 393d 481f 093d e72d a33d
000003f0: 535f 97bb 41ef 583d 86fd 97bd 0f88 d53c

fc_block.4.weight f4 [25, 256]
-0.020200487 -0.17428182 -0.095347 -0.089772165 -0.23425049 0.033347223 -0.40253878 0.079331264
-0.22149175 -0.18729328 0.02966305 -0.1549615 -0.19235398 -0.27759787 -0.021061806 -0.046866152
-0.00806645 -0.120763265 0.058676653 -0.17578188 0.097586036 -0.092443116 -0.29498553 0.083976775
-0.021017483 -0.047560018 -0.10468364 -0.11125392 -0.27559283 0.12937987 -0.13757223 -0.0091505945
0.04058891 -0.052667316 -0.32938337 -0.10882946 0.10756167 -0.23576777 0.16417989 -0.14008008
-0.029826522 -0.20239456 -0.054441307 0.025413157 -0.14434747 -0.059322197 -0.0811419 0.015282611
-0.11610348 -0.1651535 -0.11137356 -0.34133923 -0.16288282 0.12775508 -0.25817978 -0.15162009
0.011143711 0.07493981 -0.06997514 0.028136821 0.074283205 0.035826467 -0.29795906 0.011204128
-0.18888405 -0.09675389 -0.19048892 0.08244841 -0.041951418 -0.109250955 0.031268872 -0.2172557
-0.018342871 -0.09340377 0.14132364 -0.07948319 -0.25857025 -0.068247825 0.09197457 -0.12367428
-0.057639007 -0.14563365 0.04323771 0.04487195 -0.30205953 -0.08451863 -0.10088648 0.11456184
-0.073661186 0.030372722 -0.16640969 -0.081048936 -0.48269415 -0.36149627 -0.5472447 0.00987956
-0.092347875 0.11552681 0.096987456 -0.029352907 0.065524794 -0.15460204 -0.2548955 0.18139508
-0.024283243 -0.066805504 -0.03725835 0.0005476317 -0.008841214 0.032615397 -0.035814293 -0.010941579
-0.15630668 0.106460616 -0.11645732 0.13596763 0.0010933795 0.049448315 0.03356876 -0.1701881
-0.007749619 -0.056813624 0.07520199 -0.27427864 -0.08044461 -0.1476846 -0.120840006 -0.10735837
-0.2702142 -0.03509498 0.021299547 -0.022281235 -0.048100073 -0.040748402 0.106857985 -0.09267511
-0.052720547 -0.039008606 -0.19214955 -0.18111286 -0.0009415527 -0.25949368 -0.040763613 -0.19047616
-0.070955254 -0.017393213 0.096608244 -0.15820777 -0.20337082 0.091422655 -0.23350757 -0.28504956
-0.24627936 -0.27856034 -0.18257396 -0.30594528 0.12860791 -0.16697446 0.03194755 -0.08818658
-0.2239936 -0.041950144 0.014179374 -0.11206033 0.005678584 -0.18354869 -0.027942935 0.031206494
-0.23110242 -0.09228697 -0.2721726 -0.3181191 0.059829116 -0.1637929 -0.1688937 -0.030091753
0.020770477 -0.075843275 0.018088026 -0.1287621 -0.014075366 -0.113099664 -0.031988513 -0.16086137
-0.31322008 -0.2179922 0.120522596 0.00970639 -0.016626159 0.047895066 0.0666269 -0.029962135
-0.22107087 -0.10123692 -0.121606305 -0.18992917 0.065207966 -0.028392749 -0.048130255 0.064659365
-0.020929094 -0.17853561 -0.052238993 0.088257186 -0.15567967 -0.13403146 -0.03830643 -0.2628485
-0.21067151 -0.09853563 -0.02328012 -0.053946007 -0.15103503 -0.061013088 -0.41609654 0.061934024
-0.07142378 -0.15679349 -0.109767556 -0.34824648 -0.030178271 -0.046928555 -0.40790856 0.052112117
-0.039444502 0.12779395 -0.005788964 0.07186431 -0.052944012 0.040980846 -0.37777027 -0.0002547272
-0.1346605 -0.10158325 -0.08967592 -0.11676426 -0.3059316 -0.07029457 -0.019740246 -0.06632236
-0.23300348 -0.0465826 -0.07623484 -0.2362669 -0.14412358 -0.09704788 -0.047926724 -0.08662314
-0.027454602 -0.22401218 -0.2004961 -0.27676174 -0.32870665 -0.10165381 -0.029080821 0.094917335
00000000: 7e7b a5bc ef76 32be 4a45 c3bd 78da b7bd
00000010: 5cdf 6fbe 1997 083d 9019 cebe 6e78 a23d
00000020: bcce 62be cfc9 3fbe edff f23c 3aae 1ebe
00000030: 71f8 44be 4f21 8ebe cf89 acbc b9f6 3fbd
00000040: 2529 04bc bb52 f7bd ee56 703d 2a00 34be
00000050: 30db c73d d152 bdbd 5808 97be 04fc ab3d
00000060: db2c acbc 4bce 42bd 6064 d6bd 18d9 e3bd
00000070: 811a 8dbe 287c 043e bcdf 0cbe 60ec 15bc
00000080: 8f40 263d afb9 57bd f0a4 a8be fbe1 debd
00000090: 4b49 dc3d 1b6d 71be c61e 283e 2771 0fbe
000000a0: c056 f4bc 8540 4fbe d9fd 5ebd 412f d03c
000000b0: d3cf 13be d5fb 72bd b92d a6bd eb63 7a3c
000000c0: a9c7 edbd 001e 29be d217 e4bd 04c4 aebe
000000d0: c1ca 26be 3ad2 023e 2430 84be 4c42 1bbe
000000e0: 1d94 363c 0b7a 993d 204f 8fbd 317f e63c
000000f0: cb21 983d c6be 123d 178e 98be 8591 373c
00000100: d26a 41be e726 c6bd 870f 43be b6da a83d
00000110: 40d5 2bbd f7be dfbd ca13 003d 4778 5ebe
00000120: ca43 96bc 7a4a bfbd 25b7 103e 15c8 a2bd
00000130: 5263 84be 84c5 8bbd 2a5d bc3d f148 fdbd
00000140: e116 6cbd fd20 15be 061a 313d a6cb 373d
00000150: 8ca7 9abe 1a18 adbd 929d cebd 669f ea3d
00000160: addb 96bd 37d0 f83c 4d67 2abe fcfc a5bd
00000170: b023 f7be 0a16 b9be 3b18 0cbf e1dd 213c
00000180: e220 bdbd 5299 ec3d 5ca1 c63d 8275 f0bc
00000190: dd31 863d ff4f 1ebe aa81 82be a2bf 393e
000001a0: a7ed c6bc 53d1 88bd 369c 18bd f18e 0f3a
000001b0: bdda 10bc b997 053d 02b2 12bd 4f44 33bc
000001c0: dc0e 20be 0608 da3d 2d81 eebd 193b 0b3e
000001d0: ba4f 8f3a 518a 4a3d 657f 093d ca45 2ebe
000001e0: 84f0 fdbb 67b5 68bd 8003 9a3d 406e 8cbe
000001f0: 25c0 a4bd a23a 17be f77a f7bd b5de dbbd
00000200: 8459 8abe c1bf 0fbd 637c ae3c 2387 b6bc
00000210: 9504 45bd cce7 26bd 5cd8 da3d 73cc bdbd
00000220: 80f1 57bd 7dc7 1fbd dac2 44be a675 39be
00000230: 88d2 76ba 5bdc 84be bff7 26bd 2f0c 43be
00000240: fd50 91bd 367c 8ebc 8bda c53d 3801 22be
00000250: 7140 50be cd3b bb3d 9c1c 6fbe 04f2 91be
00000260: a830 7cbe 769f 8ebe abf4 3abe dca4 9cbe
00000270: cbb1 033e 5afb 2abe 6fdb 023d 2a9b b4bd
00000280: 945e 65be ead3 2bbd 9b50 683c e37f e5bd
00000290: 6a13 ba3b 30f4 3bbe 95e8 e4bc c3a4 ff3c
000002a0: 1da6 6cbe f300 bdbd 355a 8bbe 82e0 a2be
000002b0: 600f 753d 53b9 27be 78f2 2cbe fb82 f6bc
000002c0: d926 aa3c b853 9bbd 572d 943c 36da 03be
000002d0: 5d9c 66bc cca0 e7bd 6306 03bd d8b8 24be
000002e0: 625e a0be 5939 5fbe 8dd4 f63d 8d07 1f3c
000002f0: 9533 88bc 9e2d 443d af73 883d 2773 f5bc
00000300: 6760 62be 4d55 cfbd ba0c f9bd cb7c 42be
00000310: c18b 853d e997 e8bc 3b24 45bd 216c 843d
00000320: 7e73 abbc 0ad2 36be 8ef8 55bd 2fc0 b43d
00000330: 7e6a 1fbe 8b3f 09be 34e7 1cbd 1494 86be
00000340: 46ba 57be 0ccd c9bd f3b5 bebc 7df6 5cbd
00000350: eda8 1abe dce8 79bd 9b0a d5be 88ae 7d3d
00000360: a146 92bd 798e 20be d0cd e0bd 5d4d b2be
00000370: 6c38 f7bc 2838 40bd 64d9 d0be 8473 553d
00000380: 8f90 21bd 6bdc 023e 5ab1 bdbb 982d 933d
00000390: d2db 58bd 88db 273d 1b6b c1be e88c 85b9
000003a0: 71e4 09be e10a d0bd 02a8 b7bd 1a22 efbd
000003b0: 11a3 9cbe 99f6 8fbd 4cb6 a1bc 04d4 87bd
000003c0: 7798 6ebe 65cd 3ebd 0321 9cbd f3ef 71be
000003d0: 2295 13be 0ac1 c6bd d04e 44bd 7967 b1bd
000003e0: 79e8 e0bc 7363 65be da4e 4dbe b7b3 8dbe
000003f0: 3d4c a8be df2f d0bd e73a eebc 0564 c23d

fc_block.4.bias f4 [25]
-0.21577716 -0.014116067 0.18535116 0.10021812 0.022859886 0.040410947 0.0718135 0.07989118
0.17010967 0.00076983223 -0.13268933 -0.17055407 -0.03718191 -0.104292706 0.06743813 -0.1782741
-0.104493886 -0.09541647 0.0018429081 -0.12716864 0.031378053 -0.0036236863 0.03674146 -0.07963842
-0.10116582
00000000: b0f4 5cbe 1447 67bc b2cc 3d3e 283f cd3d
00000010: a844 bb3c f385 253d f512 933d fd9d a33d
00000020: 3b31 2e3e 91ce 493a b6df 07be baa5 2ebe
00000030: 0f4c 18bd 6a97 d5bd 011d 8a3d 7c8d 36be
00000040: e400 d6bd b669 c3bd bc8d f13a 7f38 02be
00000050: 4686 003d 5e7b 6dbb 377e 163d 7819 a3bd
00000060: 0730 cfbd
